HW1/models/model_bak_16_15.ckpt (torch, 6718 bytes, 13 tensors)

layers.0.weight f4 [16, 15]
000000 ec 4d 23 3e 13 41 04 3e 42 89 17 be 8b f0 51 3e
       0.15947694 0.12915449 -0.14798453 0.20501916
000010 a5 da 04 be 97 d0 aa bd 37 ee cb 3d 43 e9 19 b7
       -0.12974031 -0.083405666 0.09957545 -9.173821e-06
000020 b1 15 17 3e 55 1f 8d bd bd c0 38 3d 9c cc 2c be
       0.14754368 -0.06890742 0.045105685 -0.16874927
000030 d2 6b 16 be 3d 48 6b 3e 30 89 fc bd b9 f5 44 3d
       -0.14689568 0.22976775 -0.12330854 0.048085902
000040 68 2c 29 3e 46 e4 ca bc 14 dc 72 3d fc 47 15 be
       0.16520846 -0.024767052 0.059291914 -0.14578241
000050 b8 52 ad 3d 5f 29 61 bd 03 0e ae bd 21 47 19 3e
       0.08463043 -0.054971095 -0.08498766 0.1496854
000060 ce e9 8e bc 9b 9d ea 3d 79 4d 4a bd f3 ad 06 be
       -0.017445471 0.11455842 -0.04939029 -0.13152294
000070 19 b2 00 be 25 31 09 be 52 2d 58 be ca f1 7d bd
       -0.12567939 -0.13397653 -0.21111038 -0.061998166
000080 7c 69 0e 3e e4 4f 0f be 37 3f 93 3d 38 e2 17 be
       0.13907427 -0.1399532 0.07189792 -0.1483239
000090 82 df 65 be 24 25 7e 3e 8b 24 33 be e6 34 95 bd
       -0.22448543 0.24818856 -0.17494409 -0.0728548
0000a0 19 5c 85 be 6c 77 6b be b8 8d 3a 3e dc 12 ae bc
       -0.26046827 -0.22994775 0.18218124 -0.021249227
0000b0 68 df 14 be ac 9d 02 3e 4d f7 ed 3d 5f 35 12 be
       -0.14538348 0.1275546 0.116194345 -0.14278172
0000c0 f1 f4 8e bd 28 c9 d6 3d d1 d9 8a 3d 55 92 58 3e
       -0.069803126 0.10487586 0.067798264 0.21149571
0000d0 6c 83 a9 bd 59 d8 f1 3d c5 17 8e 3d a4 8d 33 be
       -0.0827702 0.11808843 0.069381274 -0.175345
0000e0 6c da 6c 3d d1 b9 c3 3d c3 9e 48 3e 49 8d dc 3d
       0.05782549 0.09556926 0.19591813 0.107691355
0000f0 23 ca 19 3e 76 18 86 bc f2 68 3a 3e 83 42 b5 3d
       0.15018515 -0.016369086 0.18204096 0.08850577
000100 fc 2a e1 bd 8a 5b 87 bd 1d 70 75 3e c2 c0 df 3d
       -0.10994527 -0.066092566 0.23968549 0.109254375
000110 13 af 84 3c df a7 6a 3e 7b 63 e7 3c 55 6d 83 bd
       0.016196763 0.229156 0.028245678 -0.06417338
000120 46 34 46 3e c3 df 65 3e a1 38 1e 3e c5 b5 68 be
       0.19355878 0.2244864 0.1545129 -0.2272559
000130 4b 1a 00 bd 84 c9 e7 3d e3 dd eb 3c 91 c4 4b 3e
       -0.031275075 0.11317733 0.028792327 0.19899203
000140 87 33 6b be 22 3a 44 be 1b 7b 44 be 13 65 70 bd
       -0.22968875 -0.19162801 -0.19187586 -0.058690142
000150 46 e2 64 3d 57 e8 30 be 7b 32 35 3e 3b 0f 70 be
       0.055879854 -0.1727613 0.17695038 -0.2344331
000160 f6 81 4b 3e d0 e2 71 be ca d0 3f 3e c4 c4 2f be
       0.19873795 -0.23621678 0.1873199 -0.17164904
000170 2b ef 1b be 96 e1 86 39 2a e7 ae 3d c9 19 8a 3c
       -0.15227954 0.00025726546 0.08540185 0.016857998
000180 70 8f 83 bd 43 e8 36 be b5 15 1c be 76 88 f8 bd
       -0.06423843 -0.17862038 -0.15242656 -0.12135403
000190 97 37 0a 3e 48 5b 3f be 59 06 c3 bd 0f 78 da bd
       0.13497768 -0.18687165 -0.09522695 -0.106674306
0001a0 e7 0f c0 bc b6 e5 e6 3c 37 f3 f0 bd e3 42 7e be
       -0.023445083 0.028185707 -0.117651395 -0.24830203
0001b0 74 c8 b6 3d ff a7 d9 3d 46 38 6d 3e 67 a5 c3 3d
       0.08924952 0.10627746 0.23165998 0.09553032
0001c0 5b 61 12 3e 4a a8 21 be 1a 3d 53 be 1d 53 83 be
       0.1429495 -0.15786853 -0.20628777 -0.25649348
0001d0 15 d3 15 3d 3e eb 23 be 28 bf 72 bd 49 22 3c 3e
       0.036578257 -0.16007707 -0.059264332 0.18372454
0001e0 6a 7e 88 3d 30 a0 d3 3d a0 e7 f5 3d 56 df 26 3c
       0.066647366 0.10333288 0.120070696 0.010185083
0001f0 25 47 19 3e 13 dd 6d bc f1 c9 ce bd ba e2 3b be
       0.14968546 -0.01451804 -0.10097111 -0.18348208
000200 f8 ea 1b be e6 9a bf bd dd 0c 6c bc 5a fe 22 be
       -0.15226352 -0.093557164 -0.014407364 -0.1591734
000210 f9 dc 5f 3e 2c d6 6e be d2 08 a2 3d 97 e7 02 be
       0.21861638 -0.23323888 0.079118386 -0.12783657
000220 8f fa 29 bd 24 53 84 3e a2 a7 f5 3d f2 6c 96 bd
       -0.041498717 0.2584468 0.11994864 -0.073449984
000230 cb d4 a3 3d da 51 76 bd ed 83 64 3c 82 70 6d be
       0.079995714 -0.060136653 0.013947469 -0.2318745
000240 04 6d 34 bd 70 9b 8f 3e fb f2 e3 bd bc 2a 0f 3e
       -0.044049278 0.28048277 -0.11130329 0.13981146
000250 37 a7 84 3e a1 95 3f be 96 92 e6 bb 7a b3 05 3e
       0.25908825 -0.18709423 -0.0070365174 0.13056746
000260 1e 78 0b 3d 9e 5b eb 3d 05 a9 58 3e 65 d5 e7 bd
       0.0340501 0.11492084 0.21158226 -0.11319999
000270 84 7a a4 bd 1d dd 5c 3e 87 ba 14 be 0b da eb bd
       -0.080311805 0.21568723 -0.1452428 -0.11516198
000280 7b 5c 24 3e b7 40 97 bd e9 eb 95 3d a8 35 86 3d
       0.16050903 -0.0738539 0.07320387 0.06553203
000290 c4 c4 c3 bd 92 3e 25 3e 0b f0 25 3e 09 8f d7 bc
       -0.095590144 0.1613715 0.1620485 -0.026313322
0002a0 65 e4 a7 bd d1 a6 bd 3d 53 9d 96 bd 04 88 a0 bc
       -0.0819786 0.09260333 -0.07354226 -0.019596107
0002b0 5b e8 f2 3d d5 92 7a bd 48 1f 2a 3e 00 ec 3c 3e
       0.118607245 -0.061175186 0.16613495 0.18449402
0002c0 bf e9 05 be a4 de c3 bd 75 a7 6d bd 80 28 48 3e
       -0.13077448 -0.0956395 -0.058021028 0.195467
0002d0 eb 2d c7 bc fc 1c 69 be 0e 26 71 3e b6 40 06 be
       -0.024313888 -0.22764963 0.23549673 -0.13110623
0002e0 6c c9 e1 bd 80 f0 47 be 02 90 32 3e d9 05 25 bd
       -0.11024746 -0.19525337 0.17437747 -0.04028878
0002f0 57 05 10 bd 4b d5 e6 3d a9 c6 3b 3a d0 1e a1 bd
       -0.035161342 0.11271151 0.00071630866 -0.07867205
000300 4c eb db 3d 66 f4 27 be 74 f3 62 bd de 5f d8 3d
       0.10738239 -0.16401824 -0.055407956 0.1056516
000310 e9 5d ac 3d 59 02 3b 3e 41 a4 2c 3e 42 ea c7 3d
       0.084163494 0.18262614 0.16859533 0.09761478
000320 c2 73 e9 3d 31 82 ee bd 54 8d 53 3d df ab aa 3d
       0.11399032 -0.11645926 0.051648453 0.08333563
000330 a4 e5 87 be 63 87 36 be 37 e9 68 3d c4 15 52 3d
       -0.2654239 -0.17825083 0.056863036 0.05129029
000340 d4 b2 60 be 8b d4 bb bd 6e c9 96 bd 16 cf 9c 3d
       -0.21943218 -0.09171399 -0.073626384 0.07656686
000350 5d 81 2f be a8 23 44 3e 87 41 5f 3e 7c a4 86 be
       -0.17139192 0.19154227 0.2180234 -0.26297367
000360 01 69 72 be 91 22 cd 3c 4e 0c ac bd 12 3a 53 be
       -0.23672868 0.025040897 -0.084007844 -0.20627621
000370 d6 51 1d bd 07 7d 19 be 97 74 3b bb 64 45 6a be
       -0.038408123 -0.149891 -0.0028603429 -0.22878033
000380 3c 41 82 bc 00 97 56 3e 9d 1b c1 3d 24 86 b1 bd
       -0.015900247 0.2095604 0.09429095 -0.086681634
000390 77 c4 2f 3e 0c d8 43 3e a7 82 36 3e 4b 58 52 be
       0.17164789 0.19125384 0.17823277 -0.20541494
0003a0 00 8d 84 3e 9a 76 3c 3e 40 3e 61 bb 92 0b 46 3e
       0.25888824 0.18404618 -0.003436938 0.19340351
0003b0 e6 7d fc bd 99 bd 13 be 03 1a 3e 3e ee 14 d5 bc
       -0.12328701 -0.14427795 0.1856461 -0.026010957

layers.0.bias f4 [16]
000000 9e 98 52 bd 98 09 3c be 3e 9d df bd 3b d2 ac bd
       -0.05141508 -0.18363035 -0.109186634 -0.08438536
000010 db 3a 01 be bd 93 ea bd 54 59 16 3d e9 38 71 3e
       -0.12620108 -0.1145396 0.036706284 0.23556866
000020 ed 18 09 3e 05 10 ef 3d 4d 20 24 3e c5 8c c7 3d
       0.13388415 0.11672977 0.16027947 0.097436465
000030 b2 50 88 3e d1 75 23 be 5b 29 15 3e 60 e0 6f 3e
       0.26624066 -0.15962912 0.14566557 0.23425436

layers.2.weight f4 [16]
000000 73 aa 7f 3f 1e 92 7f 3f d4 5d 7f 3f 18 4f 82 3f
       0.9986946 0.9983233 0.99752545 1.0180387
000010 5a d9 7c 3f 84 f6 7d 3f 8e 80 7f 3f eb 22 7f 3f
       0.9876915 0.9920428 0.99805534 0.99662656
000020 d2 3c 7d 3f 16 79 80 3f d0 84 7d 3f 4a 2e 7f 3f
       0.9892093 1.0036952 0.9903078 0.99680007
000030 51 0b 7c 3f 29 ce 7e 3f 65 41 7e 3f 8e 13 7e 3f
       0.9845477 0.99533325 0.99318534 0.9924859

layers.2.bias f4 [16]
000000 26 23 40 bc e8 26 26 bb 36 1b 0a 3b 59 5c 50 3c
       -0.01172713 -0.002535278 0.0021073348 0.01271733
000010 35 f5 94 3a 58 8a e4 bb 14 b4 53 bc db 42 e5 3a
       0.0011364581 -0.0069744997 -0.012921352 0.0017491238
000020 5e b2 71 bc 2d 82 05 3c 5c 88 78 bb 28 1b 39 3c
       -0.014751999 0.008148712 -0.0037923073 0.011297978
000030 00 2d c3 bb fd 49 a9 3c 63 75 f6 3c f5 54 8e bc
       -0.005956292 0.020665163 0.030085271 -0.017374495

layers.2.running_mean f4 [16]
000000 a7 38 2c 3b 68 bc 14 bb 97 03 9a bb ae f4 f6 3d
       0.0026278885 -0.0022695307 -0.004700135 0.12058388
000010 fa 35 60 3e cd 8b 36 bb 48 48 7b ba 17 2a 45 3e
       0.2189559 -0.0027854324 -0.0009585661 0.19254337
000020 63 e3 38 3d b9 33 72 3e 55 ec 64 3e e4 09 22 3e
       0.045138728 0.23652543 0.22355779 0.15824085
000030 c7 05 04 3e e2 90 c1 ba 35 f2 98 ba 48 4c f1 3e
       0.12892829 -0.001476791 -0.0011668863 0.4712851

layers.2.running_var f4 [16]
000000 a8 0d cf 39 10 78 94 34 49 ec 91 35 2d 3e 3e 3c
       0.0003949229 2.7654505e-07 1.087211e-06 0.011611504
000010 10 cf 31 3d ab 2f d4 35 92 b7 0d 39 76 f5 21 3c
       0.04341036 1.5809104e-06 0.00013515193 0.009885183
000020 50 1e ef 3a 3e 05 d6 3b b7 82 49 3c 74 e6 36 3c
       0.0018243287 0.0065313866 0.012299231 0.011163343
000030 48 31 81 3b 5a 31 51 34 f2 a1 7b 37 75 c8 a2 3c
       0.0039426424 1.9482596e-07 1.4998472e-05 0.019870976

layers.3.weight f4 [8, 16]
000000 e5 ce 8d bb af d7 27 3e 1c f9 21 3d 0d 52 88 be
       -0.0043276423 0.1639087 0.03954421 -0.266251
000010 d6 ad 82 bd 71 55 a5 bd 1b 7d 65 be 55 fc 7b bd
       -0.06380813 -0.08072937 -0.22411005 -0.06151994
000020 5a 53 3a be a9 83 59 bc eb 65 4c 3c 24 a9 fe bd
       -0.18195859 -0.013276019 0.012475471 -0.12434605
000030 75 0d d3 bd d3 7b 65 3e ab b9 83 3e 27 8c 98 3d
       -0.10305301 0.22410516 0.2572759 0.07448607
000040 9e de 6c 3e c1 64 4e 3e 3b 8c 81 3d b3 40 88 bd
       0.23131797 0.20155622 0.06325575 -0.066529654
000050 b4 81 e7 3d 29 f7 80 be cf 14 1a bc 05 a9 cf bd
       0.11304036 -0.25188568 -0.009404375 -0.1013966
000060 18 89 56 3d 25 54 70 3e 65 4d ad bd 39 97 e6 bd
       0.052376837 0.23469599 -0.084620275 -0.11259312
000070 26 23 97 3d 57 bd 15 be a8 97 13 3c 1e 68 ae 3c
       0.07379751 -0.14623009 0.009008326 0.021289881
000080 66 8d 5b be 97 09 29 3d b9 c9 54 3d 33 14 70 3e
       -0.21440658 0.04126891 0.05195019 0.23445205
000090 78 fd 2a 3e b3 5a 1f be b7 1a 7e bd f5 23 be 3d
       0.16698253 -0.15561943 -0.062037196 0.09284202
0000a0 b8 34 29 be 88 97 56 3e 9c 1a 8a 3d 87 00 06 3e
       -0.16524017 0.20956242 0.067433566 0.13086139
0000b0 d9 e9 0d be 0a ca 46 3e 02 af a1 3d ad 3d 28 be
       -0.13858737 0.1941301 0.07894708 -0.16429777
0000c0 a0 48 ea bb e5 82 13 be b4 24 3c be 23 25 34 3e
       -0.007149771 -0.14405401 -0.18373376 0.17592292
0000d0 09 a8 33 be af 45 93 bd 75 c7 dd bd c7 02 51 be
       -0.17544569 -0.071910255 -0.10829059 -0.20411216
0000e0 bd 82 51 be 5d 28 97 3d a6 d3 98 bd 63 bb d2 bd
       -0.20460029 0.073807456 -0.07462244 -0.102896474
0000f0 a9 d1 12 be fc 90 75 3d b0 33 3b 3e a9 1b 8b bd
       -0.14337792 0.05995272 0.18281436 -0.06792385
000100 80 bd 25 be 2d a7 31 3d 4e 17 0e be 57 da 24 3e
       -0.1618557 0.043372322 -0.13876078 0.16098915
000110 a9 8c 1b bd 45 59 87 bd ae 53 c3 bc a4 4e 26 be
       -0.03797594 -0.06608824 -0.023843613 -0.16240937
000120 12 0d 1a be 01 7f 5e 3e da 2f ed 3d c0 1e 63 be
       -0.15044048 0.21728136 0.115813926 -0.22179699
000130 87 9d 03 be 54 6b 15 3e 76 31 71 be 7f 68 67 3e
       -0.1285306 0.14591724 -0.23554024 0.22598456
000140 c4 30 03 bd 3d 63 43 3e 61 46 34 3e a6 a4 c3 3c
       -0.03202893 0.19080825 0.17604972 0.023882221
000150 e8 fe ee ba 2b 2e 75 be 05 c5 23 3e 7d cf 5a 3e
       -0.0018233927 -0.23943393 0.15993126 0.21368213
000160 c3 f3 93 3a 95 99 45 3d 6e a8 9c bd 83 41 64 bd
       0.0011287857 0.04824217 -0.07649313 -0.05572654
000170 62 2e fd bd 79 cb 32 3e 68 f7 2e 3e 62 42 ff 3d
       -0.123623624 0.17460431 0.17086565 0.124638334
000180 1e 87 0f be a6 15 c3 bc 74 b0 5f 3e 0a 83 34 3d
       -0.14016387 -0.023814034 0.21844655 0.04407028
000190 f6 37 52 3d 46 36 c8 bd 69 85 55 3e eb fd 61 3c
       0.0513229 -0.09775977 0.20851673 0.013793449
0001a0 37 be 55 be 73 98 03 3e 23 fd 1f be 89 a9 82 be
       -0.20873342 0.12851124 -0.15623908 -0.2551997
0001b0 29 22 a7 3d f4 b0 08 be eb 3d 3c be 15 a1 31 be
       0.081608124 -0.13348752 -0.18382995 -0.17346604
0001c0 5d fa e1 bd ce 0e ac bd 88 c0 08 bd 6a 48 7c 3e
       -0.11034081 -0.08401261 -0.033386737 0.24636999
0001d0 0f 9b f8 bd c4 6a 9a 3d c5 3a 03 3d 51 8d db bd
       -0.1213895 0.07539895 0.03203847 -0.10720313
0001e0 05 46 b8 3d ed db 63 3e 37 b6 8f bd 53 a8 13 bc
       0.0899773 0.22251864 -0.070171766 -0.0090123
0001f0 fa 92 3e 3e 08 a6 25 3e 53 dd b1 3d 2a cd a6 3d
       0.18610755 0.16176617 0.08684792 0.08144601

layers.3.bias f4 [8]
000000 8e 76 33 be d8 a2 5b be 74 d5 a6 bc 20 ed c2 3d
       -0.17525694 -0.21448839 -0.020365454 0.09517884
000010 3f 3f 0f bc 97 72 8a 3d 64 ef 74 3e b8 16 06 3e
       -0.008743106 0.067601375 0.23919445 0.13094604

layers.5.weight f4 [8]
000000 d8 ff 7d 3f 30 ea 7a 3f 47 b2 7f 3f df 53 7e 3f
       0.9921851 0.9801359 0.99881405 0.9934673
000010 71 e8 79 3f 13 de 7e 3f ef 3e 7b 3f 96 e5 79 3f
       0.976203 0.9955761 0.98142904 0.97615945

layers.5.bias f4 [8]
000000 52 bf 73 bd 4c 9c 59 3d ce 53 09 3e a6 ae 8d 3d
       -0.05950863 0.053127572 0.13410875 0.06918077
000010 23 bc 1b be 97 ef 08 bc 5f 0c 57 bd 42 61 9d 3d
       -0.15208487 -0.008357904 -0.052502032 0.07684566

layers.5.running_mean f4 [8]
000000 d7 09 f8 3d 03 65 75 3d 53 ff 76 3e 81 43 50 3e
       0.12111252 0.059910785 0.24120836 0.2033825
000010 86 e5 99 3e 02 db 23 3e 31 2c b4 3e ca 86 77 3e
       0.30057925 0.16001514 0.35189965 0.24172512

layers.5.running_var f4 [8]
000000 dd 0e 2b 3d 76 bd 22 3d 84 d5 6a 3e b3 15 63 3d
       0.04176222 0.039731465 0.22933012 0.055440616
000010 78 52 b5 3e 42 75 59 3d 22 c7 a2 3d 64 59 be 3d
       0.3541448 0.05309034 0.07948138 0.09294394

layers.6.weight f4 [1, 8]
000000 e3 ce bf bd d9 89 11 3d f5 c5 83 3e 99 ef d2 3d
       -0.093656324 0.035531852 0.25736967 0.10299606
000010 5e b6 8f be a0 2c 8b bc 43 6f 82 bc 38 d7 f7 3d
       -0.28068823 -0.016989052 -0.015922194 0.121015966
