HW1/models/model_bak_16_18_bestnow.ckpt (torch, 6910 bytes, 13 tensors)

layers.0.weight f4 [16, 18]
000000 97 3f d8 3d c2 fc e6 3d 2d 16 11 be 59 92 1d 3e
       0.10559004 0.112786785 -0.14168616 0.15387858
000010 59 1f 42 be c3 e8 7e bd 28 72 85 bd f8 95 81 ba
       -0.1895727 -0.062233698 -0.06515914 -0.0009886613
000020 89 72 09 3e 90 cf 89 bd 31 7f 78 bd a8 1a ee bd
       0.13422598 -0.067290425 -0.060668174 -0.11626178
000030 a1 41 8d be 61 a8 3a 3e ae f0 0e be 80 15 73 3d
       -0.27589133 0.18228294 -0.13959 0.059346676
000040 a0 17 a2 3d 71 72 74 3c 8c f3 56 3d 80 99 09 be
       0.07914662 0.014919863 0.05247836 -0.13437462
000050 c4 63 95 3d 9a 21 78 3a a4 53 e1 bd 3d 34 1b 3e
       0.072944194 0.0009465456 -0.11002281 0.15156646
000060 dc 9f 95 bd 7f 75 d1 3d d3 b1 59 bd 87 9b 98 bd
       -0.073058814 0.10227489 -0.053148102 -0.074515395
000070 f0 e5 ff bd c7 91 07 be 0d c9 57 be 9b 6d 2e bd
       -0.12495029 -0.13239203 -0.21072789 -0.042584997
000080 9f 09 11 3e e4 dc aa bd 68 97 81 3d 80 6c 12 be
       0.14163826 -0.08342913 0.063277066 -0.14299202
000090 b5 f0 3c be 45 90 5c 3e 8d 16 30 be c3 38 1f bc
       -0.18451197 0.2153941 -0.17196102 -0.009718123
0000a0 29 4e a0 be 90 c5 cb bd bc f1 5b 3d c7 72 d9 bc
       -0.3130963 -0.099497914 0.053697333 -0.026543988
0000b0 a0 99 0f be 56 61 44 3e 87 b8 3d 3d 6f 4a 94 bd
       -0.14023447 0.19177756 0.046318557 -0.072407596
0000c0 cd 58 62 bd e2 cf 81 3d 7b 4c f6 3c d6 e8 6e 3e
       -0.05526047 0.063384786 0.030065766 0.23331007
0000d0 7e 7d ec bd 3b 29 2a 3e 87 38 12 3e 53 e4 62 be
       -0.11547373 0.1661729 0.14279376 -0.22157411
0000e0 d8 25 1b 3b a6 35 83 3d 7e f9 8f 3d 44 fb cf 3d
       0.002367368 0.06406717 0.07030009 0.10155347
0000f0 03 e7 e1 3d 06 e4 55 bd 89 8d 07 3e 56 de 1a 3d
       0.1103039 -0.052219413 0.13237585 0.037809692
000100 39 c3 28 be 53 79 cd bd a5 f0 5c 3e 61 f8 e9 3d
       -0.16480722 -0.100329064 0.21576174 0.11424328
000110 e9 78 e9 3c cf 14 51 3e 0b 3f 82 bd c4 a1 ca bd
       0.028500037 0.20418094 -0.06359681 -0.098941356
000120 a9 21 45 3e 0d ad 47 3e ad cb 07 3e e0 f0 3c be
       0.19251122 0.19499607 0.1326129 -0.18451262
000130 93 02 d9 bd 52 45 14 3e 28 51 c3 bd 7c c4 29 3e
       -0.10596194 0.14479569 -0.09536964 0.16578859
000140 4a fc 66 be 4d 72 32 be 73 e1 68 be 8e 27 54 bd
       -0.22557178 -0.17426415 -0.22742252 -0.051795535
000150 5e 86 11 bd 4e de 1a be 4c b0 2c 3e 75 d1 50 be
       -0.035528533 -0.15123865 0.16864127 -0.20392402
000160 a8 f9 0a 3e 64 5e 5c be 22 73 15 3e 63 4e 03 be
       0.13571799 -0.21520382 0.14594701 -0.12822871
000170 81 76 ec bd 92 f0 31 bd 82 88 0c 3e 10 a7 5c bd
       -0.1154604 -0.043442316 0.13723949 -0.05387026
000180 9f 73 8a bd 5f 42 04 be d3 a2 df bd 4b 95 0d be
       -0.06760334 -0.12915944 -0.10919728 -0.13826482
000190 c9 46 1d 3e da 19 31 be dc 8f 42 be 1b 45 d8 bd
       0.15359034 -0.17295018 -0.1900019 -0.10560056
0001a0 c4 8a f9 bc 31 94 49 bd 20 57 51 bd 99 91 54 be
       -0.030461676 -0.049213592 -0.05110848 -0.20758666
0001b0 8b 98 9c 3d b6 10 de 3d 28 f6 5b 3e d3 38 1c 3e
       0.07646283 0.10843031 0.2148062 0.15256052
0001c0 6b 9d 24 3e 4a 4c 2a be 98 f8 2b be 80 ee 6b be
       0.16075675 -0.16630664 -0.1679405 -0.230402
0001d0 dc dc f3 3c 52 08 ea bd dd 93 b9 3c 99 4a c4 3d
       0.0297684 -0.11427368 0.022653515 0.09584541
0001e0 dc a4 e7 3d af b4 db 3d e4 ad f9 3d 73 4c 5c 3d
       0.11310741 0.10727822 0.1219137 0.053783845
0001f0 ad 5b 3c 3e 8b a4 b6 bd ed da f2 bd 2d c2 5e be
       0.18394347 -0.08918103 -0.11858163 -0.2175376
000200 68 d7 3c be 10 40 e9 3b c5 b0 42 be 9e 77 bc bd
       -0.18441546 0.0071182325 -0.19012745 -0.09202503
000210 00 6d 1d bd 72 99 87 be 3b 4f cb 3c 0b 25 ba bd
       -0.03843403 -0.26484257 0.024818053 -0.09089097
000220 c3 9f 25 be 19 82 4b 3e 8e 92 3e 3d 94 d7 ae bd
       -0.16174226 0.19873847 0.046526484 -0.08537212
000230 94 4d 64 3d 31 5b 79 bb e0 43 d7 bd 36 ab 7e be
       0.055738047 -0.003804874 -0.10510993 -0.2487
000240 96 fe af bc c2 3a 70 3e dd 4f 01 be dd 34 51 3d
       -0.0214837 0.23459914 -0.12628122 0.051075805
000250 3d 6b 84 3e 06 19 4f be ff 72 72 3d 67 c9 f7 3d
       0.25863066 -0.2022439 0.0591917 0.12098961
000260 44 20 05 3d d1 34 95 3d 8b 5b 49 3e db 87 c5 bd
       0.032501474 0.072854646 0.19663827 -0.09645053
000270 7b cb 91 3c 90 85 35 3e a5 3e 1c be fa 48 e5 bd
       0.017797222 0.17726731 -0.15258272 -0.1119556
000280 f7 d8 21 3e d8 94 7d bd fd 04 bf 3d 00 28 ed 3c
       0.15805422 -0.061909527 0.09327123 0.028949738
000290 89 b0 e8 bd 25 23 66 3e f9 e5 d1 3d 60 dc cc 35
       -0.113617964 0.22474344 0.10248942 1.5263322e-06
0002a0 4d 88 81 bd be ef a7 3c ec 44 e9 bd 7c d8 10 bc
       -0.063248254 0.02050006 -0.11390099 -0.008840676
0002b0 d8 14 f3 3d 31 ac ed bd e4 9a 5f 3e 0e a9 2a 3e
       0.1186921 -0.116051085 0.2183643 0.16666052
0002c0 1a 09 d6 bd 3d 8c 46 bd c9 28 57 bd d1 f4 f0 3d
       -0.10450955 -0.048473585 -0.05252913 0.11765445
0002d0 90 ab 00 bd 1d 39 58 be c6 d5 59 3e bd 8c 6e bd
       -0.031413615 -0.21115537 0.21272954 -0.058239687
0002e0 c7 61 54 bd d2 8a 3b be 8a a1 f5 3d 28 c0 1e bd
       -0.05185106 -0.18314674 0.11993702 -0.038757473
0002f0 aa 4f 0c bd 1f 1e 28 3e 1e ca 66 3d 5d c0 a8 bd
       -0.03425566 0.1641774 0.056345098 -0.082398154
000300 d1 43 82 3d 6d a1 1d be 8e b3 5e bd c4 42 17 3e
       0.06360591 -0.1539361 -0.054370455 0.14771563
000310 6f 2b 2b 3e 64 0b 38 3e a5 2b 20 3e eb ee cd 3d
       0.16715787 0.17973095 0.15641649 0.100553356
000320 99 f1 08 3e 11 f4 4b be 55 5f 13 3b 82 b7 0a 3d
       0.13373412 -0.19917323 0.0022487242 0.033866413
000330 59 96 8b be ca 4a 18 be 1c f4 ac 3d 5d e6 fe bc
       -0.27263144 -0.1487228 0.08444998 -0.031115705
000340 68 7f 8a be 8a 37 b0 bd 32 0f 17 be 4f f0 81 3d
       -0.27050328 -0.08604343 -0.1475189 0.06344663
000350 b4 7e 27 be 97 27 d7 3d f5 e5 0a 3e 91 13 6b be
       -0.16356927 0.10505598 0.13564284 -0.22956683
000360 70 03 43 be c0 a6 da 3c e1 fa 8d bd 3b 14 6e be
       -0.1904428 0.02669084 -0.06932617 -0.23249905
000370 fb 55 80 bd 45 f7 eb bd 4a e3 98 3c 2d 35 5e be
       -0.062663995 -0.11521772 0.018663067 -0.21699972
000380 75 17 9e bc c7 f9 c5 3d 47 8e 75 3d 64 b4 cd bd
       -0.019298295 0.09666782 0.05995014 -0.100441724
000390 97 aa 09 3e 3b d5 48 3e dc ec 3c 3e a6 c2 89 be
       0.13443981 0.19612591 0.1844973 -0.26906317
0003a0 02 73 3e 3e 0d b4 14 3e 00 9e 43 bb 11 0d 2b 3e
       0.1859856 0.14521809 -0.0029848814 0.16704203
0003b0 0b 6a fd bd 43 44 b0 bd 30 3f 2e 3e e6 6e e5 3c
       -0.12373742 -0.0860677 0.17016292 0.028006982
0003c0 ad de 93 bd 6d 13 42 be 5f 29 f3 bd af 2d 44 bd
       -0.072202064 -0.18952723 -0.11873125 -0.04789513
0003d0 9d 81 93 bd be a0 cf bd e3 ab 8a 3d c9 4a 68 3e
       -0.07202456 -0.10138081 0.06771066 0.22684778
0003e0 c7 19 2e 3e 05 44 32 3e ae 32 44 3e f2 87 b5 3d
       0.17002021 0.1740876 0.19159958 0.0886382
0003f0 f5 c0 61 3e 84 a4 c2 bd 4a b7 44 3e 0d 19 78 3e
       0.22046264 -0.09504035 0.19210544 0.24228306

layers.0.bias f4 [16]
000000 2d 7c 4a be dd a2 24 3d ff 40 5f 3d d8 6d 6e 3e
       -0.19773932 0.04019438 0.054505344 0.2328409
000010 07 07 2c 3e dc 41 16 be ba 0f 58 bd 15 2f a7 3d
       0.16799556 -0.14673561 -0.052749373 0.08163277
000020 12 22 25 be db 31 3e 3e 59 4a 43 3d 75 46 fa 3d
       -0.16126278 0.18573706 0.047678325 0.1222047
000030 d4 b2 d1 bd 5a 77 3a 3e a8 f0 aa 3d 1e 80 27 be
       -0.10239187 0.18209592 0.08346683 -0.16357467

layers.2.weight f4 [16]
000000 e6 a6 78 3f 59 22 84 3f da 7f 74 3f fc d9 85 3f
       0.97129667 1.0322982 0.95507586 1.0457149
000010 73 af 7a 3f 81 fb 79 3f d7 ae 76 3f ef a9 81 3f
       0.97923964 0.9764939 0.96360534 1.0129985
000020 94 11 76 3f 4d e0 81 3f 77 25 7a 3f 20 e8 7f 3f
       0.9612057 1.0146576 0.97713417 0.9996357
000030 c2 19 7d 3f 34 c2 81 3f 27 7f 71 3f 2d a7 79 3f
       0.9886743 1.0137391 0.94334644 0.97520715

layers.2.bias f4 [16]
000000 05 6b ba bd a0 67 7a 3d 15 37 95 3d e7 18 ac 3c
       -0.091024436 0.06113398 0.07285897 0.021007968
000010 9e 91 57 3d 15 aa 29 bd 52 25 d3 3d c5 10 a3 3d
       0.052629106 -0.04142197 0.10309853 0.07962183
000020 f6 dd 71 bd 30 e5 53 3d 05 9a b2 3b f7 03 17 bd
       -0.05904957 0.051732242 0.0054504895 -0.036869016
000030 97 3d 6d bc 0e cf 0b 3d 95 a5 6a 3c b1 92 4c bd
       -0.014480016 0.03413301 0.014321704 -0.049944583

layers.2.running_mean f4 [16]
000000 7a d7 c0 bd 92 43 55 be a6 4a 14 41 96 01 48 41
       -0.09416099 -0.20826557 9.268225 12.500387
000010 33 4a bd be be 69 86 be 7f 6a eb 40 06 65 5f be
       -0.36970672 -0.2625255 7.35675 -0.21815881
000020 a6 14 b1 40 2b 53 6b 41 04 9b 79 41 6d a4 87 be
       5.5337706 14.707805 15.600346 -0.26492634
000030 15 df 0e be a3 5f 20 41 17 15 2f 41 e4 e7 ac 41
       -0.13952287 10.023349 10.942649 21.613228

layers.2.running_var f4 [16]
000000 ae 06 16 3b e6 27 29 3b 12 dd 66 41 49 bd 16 41
       0.0022892165 0.0025811135 14.428972 9.421212
000010 89 8a 6b 3b 1c 39 1d 3a 3c 35 8f 41 6b 00 6c 3b
       0.0035940728 0.00059975847 17.900993 0.0036010991
000020 69 20 35 42 a8 30 6a 41 4e 64 95 41 14 61 6a 3b
       45.28165 14.636879 18.673977 0.003576343
000030 06 91 99 3a 7e 23 39 41 df d8 8f 41 1b 43 c0 41
       0.0011716194 11.571165 17.980894 24.032766

layers.3.weight f4 [8, 16]
000000 d9 4b 82 bd 50 e1 81 be 33 27 2b be 90 ed 9c 3e
       -0.06362123 -0.25367212 -0.16714172 0.30649996
000010 bd d7 42 be 00 04 27 be 1f 3c ca bc af bc 1f be
       -0.1902761 -0.1631012 -0.024686871 -0.15599321
000020 3a d0 ba bd ff f2 46 3e c7 94 67 bb 82 78 77 be
       -0.09121747 0.19428633 -0.003533648 -0.24167064
000030 cb f9 d0 3c 5b 16 23 3e 62 09 82 3d cf ef 29 3d
       0.025509736 0.15926497 0.06349446 0.041488465
000040 f4 77 31 be 56 5b 40 3d 9b 65 0e be 39 80 15 3e
       -0.17330915 0.046962105 -0.13905947 0.14599694
000050 fe ab 5c bd 42 06 89 bd 36 09 ed bc af 29 04 be
       -0.053874962 -0.06690647 -0.028935056 -0.12906526
000060 d4 9e 19 be 31 e0 5f 3e fc b1 fb 3d bd cc 74 be
       -0.15001994 0.21862866 0.12289807 -0.23906226
000070 82 7d 0d be 99 f6 19 3e 82 dc 7b be b6 51 67 3e
       -0.13817409 0.15035476 -0.24595836 0.22589764
000080 b8 0e 5f bd f0 50 82 3e a0 a3 f0 bd e3 b6 f6 3d
       -0.054457396 0.25452375 -0.11749959 0.120466016
000090 19 23 bf 3c 19 7d 12 be aa 41 fb 3d bf 15 b5 3e
       0.023332166 -0.14305533 0.12268384 0.35368153
0000a0 b8 ed 99 bd 51 c1 96 3d 21 2e fe bc 27 12 a5 3c
       -0.075160444 0.07361091 -0.031027855 0.020150257
0000b0 2a 8b 6c 3e cc 62 44 3e 5e 3a 21 3d ea 9c 73 bb
       0.23099962 0.19178313 0.039362304 -0.0037172385
0000c0 f4 bc 08 be 39 c9 1c 3b 40 6b 30 3e 3c 20 f8 3d
       -0.1335333 0.002392365 0.17228413 0.12115523
0000d0 a4 14 7f 3d a5 8b 91 bd cd 93 35 3e ce ae 35 3d
       0.062275544 -0.07106713 0.17732163 0.04435616
0000e0 26 12 7d be 6a d5 11 3e f8 25 14 be a1 1b 5d be
       -0.24713954 0.14241567 -0.14467609 -0.21592571
0000f0 d0 53 cd 3d 3a 2e 0b be bf cf 2e be 4d 6d 4d be
       0.100257516 -0.13591853 -0.17071436 -0.20061226
000100 d4 21 e1 bd cb 9e a8 bd 35 0d 42 3b a5 79 5e 3e
       -0.1099278 -0.08233412 0.0029609923 0.21726091
000110 79 9b 1e be 88 be ab 3d 46 bf 31 3d 08 b7 bc bd
       -0.15488996 0.0838595 0.043395303 -0.09214598
000120 d7 1c e4 3d e4 f6 55 3e 95 68 a7 bd 79 cc dd bc
       0.11138313 0.20894963 -0.08174244 -0.02707504
000130 62 25 66 3e 28 85 1f 3e db 6d ce 3d 6a 35 ae 3d
       0.22475198 0.15578139 0.10079547 0.08506282
000140 80 cc 61 be bd d2 56 be 31 5d 67 bd 11 8d d5 3d
       -0.22050667 -0.20978828 -0.05648536 0.10427297
000150 2f c7 4d 3d 00 93 6d 3d 6c db 5f 3e 6c 01 22 3e
       0.050238784 0.05800152 0.21861047 0.15820855
000160 08 84 a5 bd 0b fb 0b 3e 04 35 34 3e c2 07 50 3d
       -0.080818236 0.13669984 0.17598349 0.05078865
000170 b8 f5 3c be c6 56 cd bc 66 3f 09 be 4e 04 23 3e
       -0.1845311 -0.02506579 -0.13403091 0.15919611
000180 87 4c 2f be 50 b0 a4 bd 5c 67 53 3d 97 7d 08 3c
       -0.17119037 -0.080414414 0.051612243 0.008330724
000190 34 e0 75 3e c4 01 21 3e d9 3d 25 3e 47 e6 1b be
       0.24011308 0.1572333 0.16136874 -0.15224563
0001a0 6c ec 02 be 03 d3 78 3e 86 7e 3b 3e 07 61 16 be
       -0.127855 0.24299245 0.18309984 -0.1468545
0001b0 1f ed 37 bc 2a eb ec 3d a0 2c d5 bd 5c d3 4c be
       -0.011225968 0.115682915 -0.10408902 -0.20002502
0001c0 75 b9 14 be 7e 3d 67 3e f3 49 01 3e 1b 8c 2b be
       -0.14523871 0.22582051 0.12625866 -0.16752665
0001d0 9f 13 3e bc 56 3a 95 3d ec 77 fb 3d 8c a1 15 3d
       -0.011601358 0.07286517 0.12278733 0.036531016
0001e0 ed 6c 5a bc 12 11 5f be 79 74 fa bd 57 97 18 3e
       -0.013331634 -0.21783856 -0.12229247 0.14901482
0001f0 34 c1 20 3d 20 be 55 be 47 22 5e 3e 0c f3 81 be
       0.039246753 -0.20873308 0.21692763 -0.25380743

layers.3.bias f4 [8]
000000 bb aa 86 bd 4e 19 56 be 2e 3a 06 3f 18 35 a5 3e
       -0.06575533 -0.2090809 0.52432525 0.3226707
000010 6f 60 75 3d 0f 76 20 be a6 99 b9 3e b8 54 b1 3c
       0.05990642 -0.15670036 0.36250037 0.021646842

layers.5.weight f4 [8]
000000 5f ba 90 3f 42 02 86 3f 11 50 9f 3f 57 59 91 3f
       1.1306876 1.0469439 1.2446309 1.1355389
000010 c6 de 8e 3f d4 fe 8c 3f 8b b0 a5 3f b3 61 a7 3f
       1.1161735 1.1015267 1.2944502 1.307669

layers.5.bias f4 [8]
000000 44 ae 94 3f dc c3 01 3f 56 c5 d6 3f ab 5d 59 3f
       1.1615682 0.5068948 1.6778972 0.8490855
000010 92 d2 4e 3f 36 c2 3e 3f 02 39 e5 3f 3c 4d f2 bf
       0.80790055 0.7451509 1.7908022 -1.892982

layers.5.running_mean f4 [8]
000000 8e c4 1d 3f da 34 03 3f 3a 1a 19 3f f5 4e d1 3e
       0.61628044 0.5125252 0.59805644 0.40880552
000010 a9 67 f5 3e 5b 09 98 3e 0b 85 03 3f 32 36 1a 3f
       0.4793065 0.29694638 0.5137488 0.60238945

layers.5.running_var f4 [8]
000000 fd 6a 9b 3f 4d b9 5f 3f da d1 22 3d c0 52 01 3d
       1.2142025 0.8739212 0.03975091 0.031573057
000010 31 1d 23 3f 20 69 8b 3e e6 aa b0 3e 43 b6 c9 3e
       0.6371642 0.27228642 0.34505385 0.39396867

layers.6.weight f4 [1, 8]
000000 9a 86 a6 3f 0e d6 2f 3f d2 38 e8 3f 61 25 87 3f
       1.3009827 0.68685997 1.814234 1.0558282
000010 4a 91 7c 3f af 9c 6c 3f 42 47 f9 3f 84 be 02 c0
       0.98659194 0.9242658 1.9474871 -2.0428782
