HW1/models/model.ckpt (torch, 6910 bytes, 13 tensors)

layers.0.weight f4 [16, 18]
0	0x3dcc83e1	0.099860914
1	0x3df72240	0.120670795
2	0xbe0acede	-0.13555476
3	0x3e2ac37d	0.16676135
4	0xbe144ba7	-0.14481984
5	0xbd8b408c	-0.06799421
6	0xbd65ee29	-0.05613533
7	0x3b6db6bb	0.0036272246
8	0x3e0c7f78	0.137205
9	0xbd9b84e5	-0.07593707
10	0xbd21bdd8	-0.03948769
11	0xbe005e4b	-0.1253597
12	0xbe80be51	-0.251452
13	0x3e3b46b3	0.18288688
14	0xbe0f75cb	-0.14009778
15	0x3d721933	0.059106063
16	0x3dbd3bd0	0.09239924
17	0x3c41cebb	0.011829074
18	0x3d5765fa	0.052587487
19	0xbe09aeaa	-0.13445535
20	0x3d954ff6	0.07290642
21	0xbc2e5aff	-0.010641812
22	0xbdca7d8b	-0.09887227
23	0x3e186c7c	0.14885134
24	0xbd6329ec	-0.0554599
25	0x3dd40351	0.10352195
26	0xbd555db1	-0.052091304
27	0xbd9c31ab	-0.07626661
28	0xbde054a7	-0.10953646
29	0xbdf6c683	-0.12049582
30	0xbe5e03b8	-0.21681106
31	0xbd3ec894	-0.046578005
32	0x3e0ccd03	0.13750081
33	0xbdc4502c	-0.09585604
34	0x3da39002	0.07986452
35	0xbe0c7483	-0.1371632
36	0xbe3bf36c	-0.18354577
37	0x3e5feca1	0.2186761
38	0xbe2c12dd	-0.16804071
39	0xbcec4261	-0.028840246
40	0xbe9c8091	-0.30566838
41	0xbdd3e7ef	-0.10346972
42	0x3da99aa3	0.08281448
43	0xbcc55a93	-0.02409104
44	0xbe0c8c5b	-0.13725416
45	0x3e3471f3	0.17621593
46	0x3d86263b	0.06550261
47	0xbd7cec83	-0.061748993
48	0xbd945cfb	-0.07244297
49	0x3d8bcd00	0.0682621
50	0x3d0fa84a	0.035072602
51	0x3e53682f	0.20645212
52	0xbdcc18cd	-0.09965668
53	0x3e232240	0.15931034
54	0x3e081213	0.13288145
55	0xbe554c57	-0.20829903
56	0x3c5ad48c	0.013356339
57	0x3d9889f0	0.074481845
58	0x3de90167	0.113772206
59	0x3da8b501	0.08237649
60	0x3df81988	0.12114245
61	0xbceb49cb	-0.02872171
62	0x3e1e2208	0.1544267
63	0x3dac9ad8	0.084279716
64	0xbe0926fa	-0.13393775
65	0xbdb94b3c	-0.09047553
66	0x3e55513e	0.20831773
67	0x3dd76f73	0.10519304
68	0x3ca26b49	0.019826548
69	0x3e59c76d	0.21267481
70	0xbc3e728a	-0.011623988
71	0xbdbf250d	-0.09333239
72	0x3e46321b	0.19355051
73	0x3e457949	0.19284548
74	0x3e060892	0.13089207
75	0xbe42e552	-0.19032791
76	0xbde4c46c	-0.11170277
77	0x3e278a47	0.16361342
78	0xbd6bfd1f	-0.057614442
79	0x3e29e4fc	0.16591257
80	0xbe6674a0	-0.22505426
81	0xbe2aa743	-0.16665368
82	0xbe695839	-0.2278756
83	0xbcab3583	-0.02089954
84	0xbcd0e81d	-0.025501305
85	0xbe1cdfce	-0.1531975
86	0x3e2b0244	0.16700083
87	0xbe5b0f04	-0.21392447
88	0x3e09c115	0.13452561
89	0xbe491372	-0.19636324
90	0x3e199161	0.14996864
91	0xbe1152e2	-0.14191774
92	0xbe024bd4	-0.12724239
93	0xbd862a72	-0.065510646
94	0x3ddaeb9a	0.10689469
95	0xbc544147	-0.012955016
96	0xbd7852b4	-0.060625747
97	0xbe16c652	-0.1472409
98	0xbe009390	-0.1255629
99	0xbe389c7d	-0.18028446
100	0x3dfae93a	0.12251516
101	0xbe2b3144	-0.16718012
102	0xbdf1079c	-0.117690295
103	0xbdd2be5a	-0.10290213
104	0xbcdd4061	-0.027008237
105	0xbd4d9d71	-0.050198976
106	0xbdb61cc7	-0.088922076
107	0xbe3f4536	-0.18678746
108	0x3da23f11	0.07922185
109	0x3dd478be	0.10374592
110	0x3e582d49	0.21111025
111	0x3e060a01	0.13089754
112	0x3e03acd4	0.12858897
113	0xbe29def9	-0.16588964
114	0xbe2c67cc	-0.1683647
115	0xbe6a25ae	-0.22865936
116	0x3d05e0dc	0.032685146
117	0xbdd7716c	-0.105196804
118	0x3c77d734	0.015126992
119	0x3ddadfbd	0.10687206
120	0x3da3d6b8	0.07999939
121	0x3dd816ff	0.10551261
122	0x3df7f274	0.12106791
123	0x3d15aaed	0.03653996
124	0x3e44e944	0.19229609
125	0xbdbe498d	-0.092913724
126	0xbdfc97b5	-0.12333623
127	0xbe539330	-0.20661616
128	0xbe33660e	-0.175194
129	0xbbd86931	-0.0066043367
130	0xbe1d5cda	-0.15367451
131	0xbdeac334	-0.11463013
132	0x3cda25ce	0.026629355
133	0xbe8045da	-0.25053293
134	0x3d1aeb70	0.037822187
135	0xbda8aa97	-0.082356624
136	0xbe033959	-0.12814845
137	0x3e60f880	0.21969795
138	0x3cf9adde	0.030478414
139	0xbdbe4a8d	-0.09291563
140	0x3d43d542	0.0478108
141	0xbd13bc6e	-0.036068372
142	0xbd91ab57	-0.071127586
143	0xbe7cfeb3	-0.24706535
144	0xbcc7394a	-0.02431931
145	0x3e79a6b0	0.24379992
146	0xbdf393ae	-0.11893402
147	0x3dd27b6d	0.10277448
148	0x3e858e65	0.260852
149	0xbe1f590b	-0.15561311
150	0xbc586e21	-0.0132098505
151	0x3e01971d	0.12655301
152	0x3d14438f	0.03619724
153	0x3dc42bc6	0.095786616
154	0x3e477d85	0.19481476
155	0xbd6793e2	-0.056537516
156	0xbd8ff44e	-0.07029019
157	0x3e3c2aad	0.18375655
158	0xbe169e86	-0.1470891
159	0xbde26e42	-0.11056186
160	0x3e1b6a94	0.15177375
161	0xbc981c61	-0.01856822
162	0x3dc7d035	0.09756509
163	0x3cdff7d8	0.02733986
164	0xbde9ce2f	-0.114162795
165	0x3e6df3d1	0.2323754
166	0x3d7a8673	0.061163377
167	0xbc2bd9f7	-0.010488979
168	0xbd66d4d7	-0.056355324
169	0x3cd1e4c1	0.025621774
170	0xbddc63df	-0.107612364
171	0x3d2d83f2	0.04236216
172	0x3dca8bde	0.09889959
173	0xbdd7ee3b	-0.10543486
174	0x3e3608cd	0.17776795
175	0x3e273f89	0.1633283
176	0xbddb89d2	-0.107196465
177	0xbd2fa2c5	-0.04287984
178	0xbd876dfa	-0.06612773
179	0x3ddb5f56	0.10711543
180	0xbd05300d	-0.032516528
181	0xbe6a1f7e	-0.22863576
182	0x3e47d1a6	0.19513568
183	0xbd127470	-0.035755575
184	0xbe261971	-0.16220643
185	0xbe222bc3	-0.15837006
186	0x3b9aaf4f	0.0047206054
187	0xbd5bd782	-0.05367232
188	0xbd485635	-0.04891034
189	0x3e3ea500	0.1861763
190	0xbd5ab54e	-0.053395562
191	0xbd995013	-0.07485976
192	0xbd30270b	-0.043005984
193	0xbe297bac	-0.16551083
194	0xbd8626fb	-0.06550404
195	0x3e264530	0.1623733
196	0x3d83bdcb	0.064326845
197	0x3e3ba45d	0.18324418
198	0x3e1c6e8e	0.15276548
199	0x3dd34e05	0.103176154
200	0x3e0aeaae	0.13566086
201	0xbe2e2985	-0.17008026
202	0x3d2bda52	0.041956253
203	0x3d943f81	0.07238675
204	0xbe8a9a7b	-0.27070984
205	0xbe17e2e6	-0.14832649
206	0x3dacc6f7	0.08436387
207	0xbc8a6b04	-0.016896732
208	0xbe798646	-0.24367628
209	0xbd70b3c4	-0.058765188
210	0xbdefec2d	-0.11714969
211	0x3d857dbc	0.065181226
212	0xbe25d944	-0.16196162
213	0x3e0f487a	0.13992491
214	0x3e25f079	0.16205014
215	0xbe44de81	-0.19225504
216	0xbe4bed5b	-0.19914763
217	0x3d033749	0.032035146
218	0xbd87241e	-0.06598686
219	0xbe599fcd	-0.21252365
220	0xbd481e81	-0.048857216
221	0xbe1eda5e	-0.15512988
222	0xbbf3190e	-0.0074187582
223	0xbe516d5c	-0.20451874
224	0xbc077988	-0.008268721
225	0x3e126507	0.14296351
226	0x3d57e1fb	0.052705746
227	0xbdea6c0f	-0.11446392
228	0x3df3bc28	0.11901122
229	0x3e38aef7	0.18035494
230	0x3e2cd950	0.16879773
231	0xbe75946a	-0.23982397
232	0x3e44c952	0.19217423
233	0x3e0fcef6	0.14043793
234	0x3bb633c1	0.0055603688
235	0x3e232a6c	0.15934151
236	0xbe0515ee	-0.12996647
237	0xbdc7c499	-0.09754295
238	0x3e00c470	0.12574935
239	0x3c3de2df	0.011589735
240	0xbd787a65	-0.0606636
241	0xbe47c55f	-0.19508885
242	0xbdfc06d9	-0.123059936
243	0xbcfdc696	-0.030978482
244	0xbdb52aba	-0.0884604
245	0xbde11691	-0.10990632
246	0x3d415799	0.04720268
247	0x3e65f9b1	0.22458531
248	0x3e2bcca9	0.1677729
249	0x3e2a8785	0.16653259
250	0x3e3294c1	0.17439558
251	0x3d81b775	0.0633382
252	0x3e647327	0.22309552
253	0xbdd01eb3	-0.101621054
254	0x3e3f1cfc	0.186634
255	0x3e74dcca	0.2391235

layers.0.bias f4 [16]
0	0xbe4abfa5	-0.19799669
1	0x3d24b639	0.040212844
2	0x3d5c5f9c	0.053802118
3	0x3e6e797f	0.23288535
4	0x3e2c1a6c	0.16806954
5	0xbe16551f	-0.14680909
6	0xbd589a92	-0.052881785
7	0x3da74274	0.08166972
8	0xbe249e66	-0.16076049
9	0x3e3deb5f	0.18546818
10	0x3d42906f	0.047501024
11	0x3dfb8b00	0.122823715
12	0xbdd1bdec	-0.10241303
13	0x3e3a3b52	0.18186691
14	0x3daa9c65	0.08330611
15	0xbe27937d	-0.16364856

layers.2.weight f4 [16]
0	0x3f7aa7e9	0.9791246
1	0x3f84783d	1.0349194
2	0x3f77942c	0.9671047
3	0x3f840419	1.031375
4	0x3f7caa4f	0.9869737
5	0x3f7c1f62	0.98485386
6	0x3f78be7f	0.97165674
7	0x3f80d231	1.0064145
8	0x3f7c86a2	0.98642933
9	0x3f811dca	1.0087216
10	0x3f7d2323	0.9888174
11	0x3f7efc33	0.99603575
12	0x3f7a0c59	0.9767509
13	0x3f8139fe	1.0095823
14	0x3f751427	0.95733875
15	0x3f7f9cb6	0.99848497

layers.2.bias f4 [16]
0	0xbdb07f20	-0.08617997
1	0x3cc8fa4c	0.024533413
2	0x3d33c1dc	0.04388605
3	0x3cd60530	0.02612552
4	0x3cca537d	0.024698013
5	0xbc59ce72	-0.013293849
6	0x3da368b7	0.07978957
7	0x3cb6a59f	0.022295771
8	0xbd649f0d	-0.055815745
9	0x3d5256a3	0.051352154
10	0x3ac4f85c	0.001502763
11	0xbd0b29ee	-0.033975534
12	0xbcb236de	-0.021754678
13	0x3d02ed04	0.031964317
14	0x3c986cd1	0.018606575
15	0xbd321eef	-0.04348653

layers.2.running_mean f4 [16]
0	0xbd943f71	-0.07238663
1	0xbe4ecda5	-0.20195635
2	0x40f8ac38	7.771023
3	0x4195e9b8	18.73912
4	0xbeaf507d	-0.34241095
5	0xbe8fbd01	-0.28073886
6	0x409b8857	4.860393
7	0xbe4cac0d	-0.19987507
8	0x411efcad	9.936688
9	0x416d7644	14.841373
10	0x40f0fe2a	7.531026
11	0xbe25f333	-0.16206054
12	0xbdf70e1b	-0.12063237
13	0x40bd99da	5.9250307
14	0x411316c3	9.193057
15	0x4194ce16	18.600628

layers.2.running_var f4 [16]
0	0x3ab249e5	0.0013602345
1	0x3b0bb8be	0.0021319832
2	0x412c1aea	10.756571
3	0x41a7713e	20.930294
4	0x3b5b4f2f	0.0033463945
5	0x3a5e85d8	0.0008488572
6	0x41419cab	12.100749
7	0x3b0a3642	0.002108947
8	0x42241307	41.01858
9	0x411a3f0e	9.640394
10	0x40c735eb	6.225332
11	0x3afc150a	0.0019232344
12	0x3a7050d4	0.0009167318
13	0x40bbe4cb	5.871679
14	0x418b8394	17.439247
15	0x4153fbfb	13.249019

layers.3.weight f4 [8, 16]
0	0xbd06199d	-0.03273927
1	0xbe624d42	-0.22099784
2	0xbe1a91ff	-0.15094756
3	0x3e8b1fcb	0.27172694
4	0xbe4abd97	-0.19798885
5	0xbdf01934	-0.11723557
6	0xbd43fb7f	-0.047847267
7	0xbe27f37d	-0.16401477
8	0xbdf6f08f	-0.12057602
9	0x3e2461b4	0.16052896
10	0x3c1c57af	0.00954239
11	0xbe4dc966	-0.20096359
12	0xbc23455b	-0.009965266
13	0x3e1368c9	0.14395441
14	0x3da6fbeb	0.08153518
15	0xbc32e500	-0.010918856
16	0xbe23ac7f	-0.15983771
17	0x3d2d652a	0.042332806
18	0xbdfac7dc	-0.122451514
19	0x3e157147	0.14593993
20	0xbd866045	-0.06561331
21	0xbd86af7f	-0.06576442
22	0xbce1fc54	-0.02758614
23	0xbe08a8de	-0.13345668
24	0xbe17e7e7	-0.14834557
25	0x3e63c10d	0.22241612
26	0x3e152cac	0.14567822
27	0xbe72c935	-0.23709567
28	0xbe1eadbe	-0.15495965
29	0x3e1b36a6	0.15157565
30	0xbe7a95e1	-0.24471237
31	0x3e637ab3	0.22214775
32	0xbd800e93	-0.0625278
33	0x3e865f6b	0.26244673
34	0xbcbc3519	-0.022974538
35	0x3d63e247	0.055635717
36	0xbcab6d9b	-0.020926287
37	0xbe27587a	-0.16342345
38	0x3de0a3d7	0.1096875
39	0x3e9692b0	0.2940879
40	0xbd80a047	-0.062805705
41	0x3d1b7c7f	0.037960526
42	0xbe1bbb45	-0.15208156
43	0xbb9ce1e5	-0.004787671
44	0x3dadca1e	0.084858164
45	0x3e28e77d	0.16494556
46	0x3db58e01	0.08864976
47	0x3d1bb153	0.038010906
48	0xbdcb18cf	-0.09916841
49	0xba2aabdd	-0.0006510595
50	0x3e72a24a	0.23694721
51	0x3d8ef6c7	0.06980663
52	0x3dab1537	0.08353656
53	0xbd8ac5e3	-0.06776025
54	0x3e378990	0.1792357
55	0x3cbcf7b1	0.023067327
56	0xbe6fa5d5	-0.23403104
57	0x3e07d30c	0.13264102
58	0xbddf05e0	-0.108897924
59	0xbe577431	-0.21040417
60	0x3d605605	0.054769535
61	0xbe1b61ff	-0.15174101
62	0xbe38fba4	-0.18064743
63	0xbe49de1d	-0.19713636
64	0xbdd378bf	-0.10325765
65	0xbda02d9a	-0.07821198
66	0x3a9dda10	0.0012043137
67	0x3e593359	0.21210994
68	0xbe171ab9	-0.14756288
69	0x3dc388f6	0.095476076
70	0x3d498c85	0.049206275
71	0xbdb8b317	-0.09018534
72	0x3dd621d6	0.104556724
73	0x3e5479af	0.20749544
74	0xbd8708c4	-0.06593469
75	0xbc91cb57	-0.017797155
76	0x3e6e3e86	0.23266038
77	0x3e238660	0.15969229
78	0x3db6ba88	0.08922297
79	0x3d916c85	0.071007766
80	0xbe5a671d	-0.21328397
81	0xbe5cf171	-0.21576478
82	0xbd8d807f	-0.06909274
83	0x3db972a3	0.09055068
84	0x3d3baf2f	0.045821365
85	0x3d979faf	0.07403504
86	0x3e6421c7	0.2227851
87	0x3e1741e7	0.14771233
88	0xbd9ef175	-0.07760898
89	0x3e0cc0c9	0.13745417
90	0x3e384175	0.1799372
91	0x3d2d1162	0.042252906
92	0xbe3ac9da	-0.18241063
93	0xbc3aff6a	-0.0114134345
94	0xbe14e894	-0.14541847
95	0x3e210fd8	0.157287
96	0xbe476829	-0.19473328
97	0xbd8f3201	-0.06991959
98	0x3cb9713d	0.022637004
99	0x3d22ab4f	0.039714154
100	0x3e6316ae	0.2217662
101	0x3e14477e	0.14480397
102	0x3dd77ccd	0.10521851
103	0xbe13800a	-0.14404312
104	0xbe553736	-0.20821843
105	0x3e643715	0.22286637
106	0x3e14014c	0.1445362
107	0xbe11c147	-0.14233886
108	0x3ca0b9e0	0.019619882
109	0x3dbfee1d	0.093715884
110	0xbd9fa9c4	-0.07796052
111	0xbe704ca2	-0.23466733
112	0xbe31d177	-0.17365061
113	0x3e5475f4	0.2074812
114	0x3e04089e	0.12893912
115	0xbe1cbc95	-0.15306313
116	0xbccc1fea	-0.024917562
117	0x3dc303d2	0.09522213
118	0x3e155fa6	0.14587268
119	0x3d158e16	0.036512457
120	0xbd3a4233	-0.04547329
121	0xbe4ac773	-0.19802646
122	0xbdd3a253	-0.10333695
123	0x3e070af2	0.13187769
124	0x3cd05cbd	0.025434846
125	0xbe28ffd0	-0.16503835
126	0x3e53c364	0.20680004
127	0xbe8e6807	-0.27813742

layers.3.bias f4 [8]
0	0xbd065ecd	-0.032805253
1	0xbe4ef113	-0.2020915
2	0x3eccfceb	0.4003671
3	0x3e948d36	0.29013985
4	0x3dcd8ccb	0.1003662
5	0xbe146a94	-0.14493781
6	0x3eb844bd	0.35989943
7	0xbbf88ec1	-0.007585377

layers.5.weight f4 [8]
0	0x3f924e5b	1.1430162
1	0x3f8532c7	1.0406121
2	0x3f9e7d1d	1.2381932
3	0x3f8ed7f4	1.1159654
4	0x3f8b91f5	1.0903918
5	0x3f8ab1e7	1.0835541
6	0x3fa7f81d	1.3122593
7	0x3fa7030a	1.3047802

layers.5.bias f4 [8]
0	0x3fabdc4a	1.3426602
1	0x3efbca35	0.4917771
2	0x3fd87ae8	1.6912508
3	0x3f555cab	0.83344525
4	0x3f4a1314	0.7893536
5	0x3f39b1bc	0.72536826
6	0x3fe67c0c	1.8006606
7	0xbff0b454	-1.8805032

layers.5.running_mean f4 [8]
0	0x3f00c979	0.5030742
1	0x3ede6b26	0.43441123
2	0x3ee07279	0.43837336
3	0x3eb5bf0b	0.35497317
4	0x3f084c9c	0.53241897
5	0x3e523b43	0.20530419
6	0x3ed9d266	0.42543334
7	0x3ef853bc	0.48501384

layers.5.running_var f4 [8]
0	0x3f471d67	0.7777924
1	0x3f2274b0	0.634593
2	0x3caa8b7c	0.020818464
3	0x3d2c5595	0.042073805
4	0x3f4093bb	0.7522542
5	0x3e0a757e	0.13521382
6	0x3d8b3705	0.067976035
7	0x3e8e4a9d	0.277913

layers.6.weight f4 [1, 8]
0	0x3fbc3232	1.4702818
1	0x3f1c2b98	0.6100402
2	0x3fec33e3	1.8453335
3	0x3f7ca2a9	0.986857
4	0x3f6a173c	0.914417
5	0x3f5aaa7c	0.8541639
6	0x3fff2f1a	1.9936249
7	0xc0042ca5	-2.065225
