HW1/models/model_bak_16_8.ckpt (torch, 6270 bytes, 13 tensors)

layers.0.weight f4 [16, 8]
000000 4a d2 39 3e 7a 2f 17 3e 04 93 80 be 71 b7 67 3e
       0.18146625 0.14764205 -0.25112164 0.22628571
000010 72 3a 5b be d4 fb dc bd 54 88 f7 3d 3b d1 33 bd
       -0.21409014 -0.1079022 0.120865494 -0.04390071
000020 92 fe 40 3e 22 a7 fc bd 52 40 87 3d dc 14 a0 be
       0.18847111 -0.123365656 0.06604065 -0.31265914
000030 e9 48 7e be e0 64 35 3e ad 55 47 be 2e c0 97 3d
       -0.248325 0.17714262 -0.19466276 0.07409702
000040 6b 16 6e 3e 16 70 16 bd 83 1c 90 3c 5c 8f 65 be
       0.2325074 -0.036727987 0.01759172 -0.22417969
000050 84 59 e9 3d b7 ba d5 bd b1 d2 f3 bd 80 9b 23 3e
       0.11394027 -0.10436004 -0.119054206 0.15977287
000060 52 ef 22 bd 53 fd 31 3e 8b 10 5c bd ab 4a 33 be
       -0.039779015 0.17381792 -0.053726714 -0.17508952
000070 4b 0f 27 be cf 0f 38 be 07 fe 92 be fa 85 83 bd
       -0.16314428 -0.1797478 -0.28709432 -0.064220384
000080 b2 ec 4c 3e 96 74 50 be ec 2d f3 3d 64 a0 19 be
       0.20012167 -0.20356974 0.11873993 -0.1500259
000090 97 a3 91 be 78 ee bb 3e 62 46 6a be 59 f0 0c be
       -0.28445122 0.36705375 -0.22878411 -0.1376356
0000a0 24 83 aa be 3d 81 9a be 0a 6e 4c 3e cc b6 51 bd
       -0.33303177 -0.30176726 0.19963852 -0.05119972
0000b0 af 26 2e be fd 37 7d 3e ba bc 5a 3e cd 43 4e be
       -0.17006944 0.24728389 0.21361056 -0.20143051
0000c0 02 da 25 bc d3 0d ae 3d 92 ce 9b 3c eb 83 93 3e
       -0.010122778 0.084987305 0.019019399 0.28811583
0000d0 0c f0 04 be f7 a6 2a 3e 98 1e 2f 3e 35 12 89 be
       -0.12982196 0.16665255 0.17101514 -0.26771703
0000e0 d4 d1 13 3d b2 36 ab 3d b4 1c 85 3e 60 24 2a 3e
       0.03608878 0.08360042 0.2599846 0.16615438
0000f0 ee c2 4b 3e 28 be 83 3c 3b 0b 81 3e 91 15 c1 3d
       0.19898579 0.016081885 0.2520388 0.094279416
000100 fd 2b 17 be 45 19 b2 bd 2d f3 a7 3e 1c 98 20 3e
       -0.14762874 -0.08696226 0.32802716 0.15683025
000110 9e 68 ca 3c 6e b1 99 3e da af 2a 3d 74 ca c8 bd
       0.024708088 0.3001818 0.04167161 -0.0980424
000120 1c 3d 8e 3e f3 ac 9a 3e 67 3c 32 3e 12 17 b4 be
       0.27780998 0.30210075 0.17405854 -0.3517385
000130 d0 f7 52 bd d4 16 06 3e 50 bd 66 3d d3 b1 85 3e
       -0.051505864 0.13094646 0.056332886 0.26112232
000140 0b 20 a3 be 0f 1e 8c be d3 6c 81 be 94 ab b1 bd
       -0.31860384 -0.27366683 -0.2527834 -0.08675304
000150 09 d9 9c 3d d7 41 88 be 8d e1 68 3e 00 a0 a6 be
       0.07658584 -0.26612732 0.22742291 -0.32543945
000160 04 b1 89 3e 34 a5 ad be ae 4c 47 3e a1 1e 7e be
       0.26892865 -0.33915102 0.19462845 -0.24816372
000170 f6 a2 6a be a0 bc 84 bd 7b 22 ae 3d bd a0 92 bb
       -0.22913727 -0.0648129 0.085026704 -0.004474728
000180 fa 36 b9 bd 3b 23 80 be 33 f2 5b be 1d ea 36 be
       -0.09043689 -0.2502688 -0.2147911 -0.17862745
000190 42 95 39 3e 08 86 81 be a4 cb 05 be a5 54 16 be
       0.18123344 -0.2529757 -0.13065964 -0.14680727
0001a0 64 de 13 bd b7 25 8b 3c 9f 20 17 bd b7 30 ae be
       -0.03610076 0.016985757 -0.036896344 -0.3402154
0001b0 1c d7 80 3d f0 8a e4 3d 55 d1 a4 3e 5c 6d 8a 3e
       0.06291029 0.11159313 0.32190958 0.2703656
0001c0 17 26 63 3e db ee 49 be a2 cf 9e be 8c c5 9b be
       0.22182499 -0.19720022 -0.31017786 -0.30424154
0001d0 9e 60 89 3d 61 cc 17 be e9 dd 69 bd 23 57 9c 3e
       0.067078814 -0.14824058 -0.057096396 0.3053523
0001e0 0f fd 6c 3d 63 9b e1 3d c9 4c e1 3d 2a 81 ab 3d
       0.057858523 0.11015966 0.11000974 0.083742455
0001f0 1e 63 36 3e d2 29 23 3d 79 17 58 be 9d 2e 95 be
       0.17811248 0.039834805 -0.21102704 -0.29137126

layers.0.bias f4 [16]
000000 65 ee 64 be f3 a2 73 bd 10 e8 02 bd f5 7b 59 be
       -0.22356565 -0.059481572 -0.031959593 -0.21238692
000010 50 ac 73 3e cb dd a9 be 43 96 bc 3d 1c 91 3f be
       0.23796201 -0.33177027 0.09208348 -0.18707699
000020 98 4e 7e bd 51 e0 b2 3e 09 b5 52 3e 9f a7 0c be
       -0.06208667 0.34936765 0.20576872 -0.13735817
000030 9f 49 9c 3d d9 d0 f9 bd 52 5f 31 3c 8d cc a7 be
       0.076312296 -0.12198038 0.010825949 -0.32773247

layers.2.weight f4 [16]
000000 f7 45 7f 3f cc 8a 7f 3f 55 3b 82 3f 9e 3f 7d 3f
       0.9971613 0.9982116 1.0174357 0.989252
000010 89 a6 79 3f e2 00 7f 3f b5 d0 7e 3f 8c 7d 82 3f
       0.9751974 0.9961072 0.9953721 1.0194564
000020 70 f3 7a 3f 99 ee 7b 3f 9d 7d 7d 3f b9 ac 82 3f
       0.98027706 0.98410946 0.99019796 1.0208961
000030 f0 ef 7a 3f 71 b7 7b 3f d5 88 81 3f 1b ac 7c 3f
       0.98022366 0.98326784 1.0119883 0.9870011

layers.2.bias f4 [16]
000000 c0 43 2a bc 07 c5 7d 3c 04 b8 a3 bb 39 a4 29 3b
       -0.010392129 0.0154888695 -0.0049963016 0.0025885238
000010 14 a5 01 3c 96 44 61 bc ed b1 a9 3c a2 19 79 bc
       0.007912893 -0.013749262 0.020714724 -0.015203865
000020 de 0d f7 b9 22 eb 19 3c 16 bd b1 3c 70 be e1 ba
       -0.00047121843 0.009394439 0.021696609 -0.0017222892
000030 de f0 31 bc 0c bb 65 3c d2 4e d6 3c d2 0d 38 bb
       -0.01086065 0.014021646 0.026160631 -0.002808441

layers.2.running_mean f4 [16]
000000 94 b4 b4 bd c2 3e f3 3f 13 d0 e1 3f ec 0a e6 bd
       -0.08823505 1.9003527 1.7641624 -0.11232552
000010 28 3b f6 3f c4 5a 1f 40 bf 0e c9 3f 49 c6 87 41
       1.9236803 2.489915 1.5707625 16.971819
000020 f1 e1 81 41 86 2a 50 41 c3 3f 8a be 2b fe dd 3f
       16.235323 13.010382 -0.2700177 1.7343191
000030 2f 58 57 be 16 d9 a6 40 50 d5 ab bd 6c b1 3e bd
       -0.21029733 5.2139997 -0.083902955 -0.04655592

layers.2.running_var f4 [16]
000000 79 ec 71 39 a9 8a 03 40 47 37 4a 40 c0 65 c0 3a
       0.00023071644 2.0553381 3.1596239 0.0014678761
000010 64 5a 0e 40 23 c9 34 40 e0 c5 f5 40 7f 28 f1 40
       2.224267 2.8247764 7.6804047 7.5361934
000020 4b ac aa 41 e2 4e ac 40 f5 2e db 3a e4 d7 4e 40
       21.334127 5.3846292 0.0016722368 3.231927
000030 c9 5a 12 3b fb c8 84 40 c2 e9 0e 3b 54 8d 4d 39
       0.0022331944 4.1495337 0.002180681 0.00019602972

layers.3.weight f4 [8, 16]
000000 a3 15 52 3d 32 35 41 3e a4 09 36 be 6a bc a0 3d
       0.051290166 0.18867949 -0.17777115 0.07848437
000010 b3 35 70 3e 77 15 27 be 1b 54 b9 bc c2 45 04 3e
       0.23457985 -0.16316782 -0.022623112 0.12917235
000020 7f f3 2e 3d d1 ad 3f 3d 53 9a 5a 3e 89 7d 1f be
       0.042712685 0.046796624 0.21347933 -0.15575232
000030 ef cd bd bd e6 0e 34 3e 3f 6e 28 be d9 31 dd bd
       -0.09267794 0.17583808 -0.16448306 -0.10800523
000040 f2 1e 1f 3e a2 12 72 bc 85 8b 96 3d e9 48 59 3c
       0.15539148 -0.01477495 0.0735083 0.013262012
000050 37 ba 84 bd f5 23 65 3e 51 8c 0f 3e 48 f3 00 3b
       -0.0648083 0.22376998 0.1401837 0.0019676257
000060 c4 bb 17 bd e0 83 ee 3d 52 80 00 be 1d f9 67 bb
       -0.0370443 0.11646247 -0.1254895 -0.0035396286
000070 fb 0c 92 3d a1 84 28 3d ff de 41 3e 04 5b f5 3c
       0.07131382 0.04114211 0.18932723 0.029950626
000080 ec 3c 5c be 1f ca 9f bd a9 17 08 ba f3 72 42 3e
       -0.21507615 -0.078022234 -0.0005191514 0.18989162
000090 c2 a3 82 bd 94 34 7f be c6 6e 2f 3e d5 1c 95 bd
       -0.063788906 -0.249224 0.171321 -0.0728089
0000a0 49 94 fa bd 6f 5f 01 be 55 0f 76 3d 6b 13 c0 bc
       -0.122353144 -0.12634061 0.060073216 -0.02344676
0000b0 7b ff 89 bd 11 a4 18 3e e0 26 02 bc b1 3d 2a be
       -0.06738182 0.14906336 -0.007943839 -0.16625096
0000c0 c4 98 56 3d 0e 10 34 be 41 95 89 bd 64 f0 e8 3d
       0.052391782 -0.1758425 -0.06717921 0.11373976
0000d0 32 ad ad 3d d5 0b 3b 3e cb dd 31 3e 94 f7 da 3d
       0.084803 0.18266232 0.17369764 0.10691753
0000e0 6e 19 10 3e a5 29 d6 bd f0 b8 30 3d 77 29 a7 3d
       0.140722 -0.10457162 0.04314512 0.08162206
0000f0 89 29 81 be 91 92 29 be b5 c0 9b 3d 83 a3 3d 3d
       -0.25227 -0.16559817 0.07605115 0.046298515
000100 81 10 0b be a0 68 02 be 63 fb dd bd e4 86 c5 3c
       -0.13580514 -0.12735224 -0.10838964 0.024112172
000110 7e 90 10 be 96 3f 71 3e 09 c9 89 3e 80 e0 48 be
       -0.1411762 0.23559412 0.2691119 -0.1961689
000120 80 00 33 be 02 34 fd 3b dc 7d d6 bd 4c 2c 65 be
       -0.1748066 0.007727147 -0.104732245 -0.22380179
000130 50 87 9a bd 3d 9a f3 bd 8a 0e fb bc 71 aa 43 be
       -0.0754534 -0.11894653 -0.030646581 -0.19107987
000140 4c 40 43 bd 4e 8f 7b 3e a4 e1 19 3e 90 fa 3f bc
       -0.04766874 0.24566385 0.15027481 -0.011717454
000150 cb 0a 83 3d 82 aa b0 3d 0c 68 e5 3d 78 0a 9b be
       0.06398543 0.08626272 0.11201486 -0.30281425
000160 b7 5f 18 3e eb db 37 3e 89 95 8e 3d 2f f5 82 3e
       0.14880262 0.17954986 0.06962115 0.25577685
000170 0b 84 f5 bc 24 7c e5 bd 55 75 82 3e 95 73 b5 bd
       -0.02997019 -0.112053186 0.25480142 -0.08859936
000180 7c 8c 50 bd ac c9 52 be f2 74 0e be ad 98 15 be
       -0.050915226 -0.20584744 -0.13911799 -0.14609022
000190 ba 01 85 bd 0b fb 85 bd 25 29 39 3d 9b d3 8e 3e
       -0.0649447 -0.06542023 0.045205254 0.27895817
0001a0 6e f0 5d 3e 13 99 ed 3d 87 4b aa 3d 84 1c 35 3d
       0.21673748 0.11601462 0.08315187 0.044216648
0001b0 12 2d 35 3e d2 ad 04 be 2b 4c 1a 3e b2 2d 65 3e
       0.17692974 -0.12956932 0.15068118 0.22380713
0001c0 25 ea a9 bc 17 d5 1c 3e 62 97 58 3d 26 c4 57 be
       -0.020741532 0.15315662 0.052878745 -0.21070918
0001d0 85 e6 50 bd 88 0e fb bd 83 36 83 be d6 58 80 bd
       -0.05100109 -0.12258631 -0.25627527 -0.06266944
0001e0 bc a4 44 be 9a 99 09 3d 6b 53 33 3d 6f 64 d4 bd
       -0.19203466 0.03359375 0.043780725 -0.10370719
0001f0 d7 42 16 be 34 91 5f 3e d9 00 6e 3e 00 44 bc 3d
       -0.14673935 0.21832734 0.23242511 0.091926575

layers.3.bias f4 [8]
000000 21 a5 8a 3e f6 00 76 3e 78 62 0f 3e a1 9b a8 bd
       0.27079108 0.24023804 0.14002407 -0.08232809
000010 da a0 dd 3d 8c f8 37 be d5 cb 1e 3d 60 8f 6c bd
       0.108216956 -0.17965907 0.038768608 -0.05775392

layers.5.weight f4 [8]
000000 cf 10 95 3f 8f 4c b3 3f 47 a2 97 3f 4c fd 84 3f
       1.1645755 1.4007739 1.1846398 1.03898
000010 f5 ab 9d 3f 9e 69 8e 3f e7 ce 94 3f 54 a6 8c 3f
       1.2318102 1.1125982 1.1625642 1.0988259

layers.5.bias f4 [8]
000000 78 80 8d 3f c5 e1 13 40 6d 91 ae bf ef 38 d8 3e
       1.105483 2.3106549 -1.363813 0.42230937
000010 2a f6 ba 3f 49 b6 96 bf 77 96 8e 3f d6 7c 51 bf
       1.4606373 -1.1774379 1.1139668 -0.8183111

layers.5.running_mean f4 [8]
000000 d8 d1 8f 3e d0 31 76 3e 08 77 ce 3e 1a c7 db 3e
       0.28089786 0.2404244 0.4032519 0.4292534
000010 d8 1a 73 3e 7b 81 ad 3e ba 47 87 3e f6 59 9e 3e
       0.23740709 0.33887848 0.2642191 0.3092801

layers.5.running_var f4 [8]
000000 36 55 b5 3c 54 9c 4a 3c 75 16 36 3e ea 7f 0a 3f
       0.022135358 0.012366373 0.17782004 0.5410143
000010 c7 03 a7 3d 6f 5e 5e 3e 0e 29 1f 3e 8f 60 d2 3d
       0.08155017 0.21715711 0.15543005 0.10272323

layers.6.weight f4 [1, 8]
000000 bc a1 a1 3f d4 0d 22 40 0b b5 c1 bf 70 b8 0a 3f
       1.2627482 2.532094 -1.5133375 0.5418768
000010 14 8c d1 3f 21 ad a5 bf c8 2b a2 3f 6e d0 70 bf
       1.6370873 -1.294346 1.2669611 -0.9406804
