HW1/models/model_bak_samplecode.ckpt (torch, 8692 bytes, 5 tensors)

layers.0.weight f4 [16, 88]
00000000: f988 febe c439 483d 921a 87bd 418e a23d
00000010: 5d5b 80bd a1a1 13bd 607c f93c 1018 94bb
00000020: 025b 683d 3f3b 0cbd 9a2a 233c 8ef6 91bd
00000030: b3db 92bd 8a52 ba3d bcbb 62bd a0db 9d3c
00000040: 7869 903d 792a 08bc 402c a53c 40cf 63bd
00000050: 9424 193d 1d13 9abc 1708 07bd 9ea6 833d
00000060: 26cb 45bc cfde 563d 8415 98bc dd88 4cbd
00000070: 07f9 4bbd 6e4d 5abd a975 b4bd b2a3 b5bc
00000080: 0784 7a3d 4814 7ebd 2c5d 113d ba92 76bd
00000090: 1f23 b2bd eb04 cc3d 08d7 b2bd 5cbf 59bd
000000a0: 50b8 f4bd ec3b ccbd b883 9d3d eebe 26bc
000000b0: 0469 97bd cc49 483d e578 143d 98d2 87bd
000000c0: 2ad3 37bc df05 463c 46f8 523c a65e 8b3d
000000d0: 677c 29bd f0b1 433d dae8 5e3d 89ac c2bd
000000e0: 169a e9bb 3821 093c 10c3 803d 15cd 193d
000000f0: 50b8 643d 1246 35bc 4080 713d cfa5 b13c
00000100: 98d0 6abd 1ba6 0ebd 9065 c43d 4a96 ef3c
00000110: c81e cd3b 84af a13d c01f d33b ea08 d6bc
00000120: b404 aa3d 7b26 b23d a715 3e3d 7ecc e5bd
00000130: 3601 01bd bd43 213d 563a fe3b a4ea 9c3d
00000140: 6a35 e8bd 797a babd adf4 bfbd 0836 0bbd
00000150: d9da 933c fabe b6bd 6ae9 913d c85b e0bd
00000160: 7a20 9fbd 9c48 cbbd 5963 943d 8562 93bd
00000170: c1f1 82bd 00c1 c4ba d47a 0e3d 0850 c13b
00000180: 8ae6 dfbc d864 99bd 1026 83bd 4161 54bd
00000190: fdb3 623d 5b29 a1bd 395c 24bd 58d6 38bd
000001a0: a0ec 2dbc 9702 2f3c ab61 28bd aa5a c3bd
000001b0: 117b cd3c 2a3c 633d 65f1 d13d d8a5 6a3d
000001c0: ccff 883d 1d5e 6dbd 55d0 c8bd 7b1b c3bd
000001d0: b3a2 b33c dac8 45bd 7ac6 8cbc b4eb aa3d
000001e0: a7b1 973c de64 1b3d 3b64 383d e595 bb3c
000001f0: 8f8d 6c3d e51c 8fbb c9a7 85bd a08f adbd
00000200: 716f 92bd c389 a7bc 16cf 2cbc 31bb 85bd
00000210: a7f8 8a3d 29d8 d2bd 8cd1 d83c 69ed 6bbd
00000220: ebf2 9fbc c9c6 d13d 08cd 7d3d 7908 2fbd
00000230: a0ca b73c e23f 19bd 3b25 523b 1351 cbbd
00000240: 349f 12bc 41e2 d03d 30ca 79bd 0b41 2f3d
00000250: 2330 d43d 9a03 a6bd 58ad cfbb 7a12 4c3d
00000260: e2b3 1a3c e89e 1f3d 5b4d b73d 150a 38bd
00000270: 9b82 0abd 76c1 af3d 29b8 7fbd 3bfc 64bd
00000280: b3d5 8d3d c901 d8bc d398 de3c c581 b23c
00000290: e514 38bd 21c0 8c3d 5e2a 833d d60c 5fbc
000002a0: 30fd f2bc 25e7 c43c 7847 1ebd 1ddb 86bc
000002b0: 10c3 3a3d eb2a 00bd e7d9 9e3d fa93 7c3d
000002c0: d1e0 97bd 03d8 47bd 7f82 ddbc 59c3 9f3d
000002d0: 6e88 53bc 80e8 cdbd f2a7 bb3d 5839 49bd
000002e0: d0c2 62bd 11fa bbbd b449 543d 2ccb bdbc
000002f0: 70a1 abbc fca7 573d c896 11bc 1fb3 36bd
00000300: 2854 c63c 9425 98bd 50da eebc b429 503d
00000310: 0ce8 153d feb3 9e3d 8a22 9a3d ec11 2b3d
00000320: 9c59 6d3d 3a85 43bd c0da bc3c c096 143d
00000330: 33dc d6bd a8ac 94bd 50b5 0a3d 6861 b13c
00000340: 1c10 b7bd b0fb 14bd 1c5a f2bc 8138 123d
00000350: 2423 89bd 777e b83d 70b5 ab3d 5ca1 e7bd
00000360: ef68 cfbd 267a 3c3c e6df 1cbd 160a a3bd
00000370: 9fb7 aabc 08f2 74bd ee88 20bb c5d9 bbbd
00000380: 57a6 36bb cd48 963d f2a6 043d 2db7 43bd
00000390: d392 873d 5b75 a63d ccda 9b3d 22a2 c0bd
000003a0: 7bed bb3d a108 773d 63d9 87bc 5cd2 a33d
000003b0: 2726 6ebd 35d4 90bd a87b 813d 3658 a5bc
000003c0: ad74 1abd 6e8b 9dbd 5cdd 3abd ab65 50bd
000003d0: 6950 5ebd 09cf 59bd 8036 313c 9004 c33d
000003e0: ac11 8e3d b137 453d 1955 653d 069f f53c
000003f0: 66be bd3d 31dd 50bd 3d68 9a3d 1067 be3d
-0.49713877 0.048883215 -0.06596865 0.07937289 -0.06267426 -0.036042813 0.030454814 -0.00451947
0.056727417 -0.03423619 0.0099588875 -0.07127105 -0.071708106 0.09097774 -0.05535482 0.019269764
0.070513666 -0.0083109075 0.020162702 -0.05561757 0.0373884 -0.018807942 -0.0329667 0.06428264
-0.01207236 0.05245858 -0.018564947 -0.04993521 -0.049798038 -0.0532965 -0.088115044 -0.022172783
0.061161067 -0.06203106 0.035489246 -0.060198523 -0.08698105 0.099618755 -0.0873242 -0.05316101
-0.11949217 -0.09972367 0.07691139 -0.010177357 -0.07393077 0.048898503 0.036248107 -0.066319644
-0.011219779 0.012086361 0.012876576 0.06805162 -0.041378405 0.047777116 0.054421283 -0.09505565
-0.007128964 0.008369736 0.06287205 0.037549097 0.055839837 -0.011064069 0.0589602 0.021685509
-0.057327837 -0.03482638 0.09589684 0.029246468 0.006259773 0.07894805 0.006442994 -0.026127297
0.08301678 0.08698746 0.046407368 -0.112206444 -0.031495295 0.03937124 0.007758419 0.07661942
-0.11338313 -0.09105391 -0.0937284 -0.033987075 0.01804869 -0.08923145 0.07124598 -0.10955006
-0.07769866 -0.099259585 0.072455116 -0.071965255 -0.06393767 -0.0015011132 0.034785107 0.005899433
-0.02733161 -0.074899375 -0.06403744 -0.05185056 0.05534743 -0.07869216 -0.040127013 -0.04512629
-0.010615498 0.01068177 -0.04110877 -0.09538777 0.025083097 0.0554773 0.102511205 0.057287067
0.066894144 -0.05795108 -0.09805361 -0.09526726 0.021928167 -0.04828725 -0.017184485 0.08345738
0.018517328 0.03793799 0.045017462 0.022898624 0.05775219 -0.004367458 -0.06526143 -0.0847466
-0.07150162 -0.020451432 -0.01054742 -0.065298446 0.06785708 -0.102951355 0.026467107 -0.05759946
-0.019525012 0.102429934 0.06196311 -0.04273269 0.022435486 -0.03741444 0.0032065648 -0.09927573
-0.00894909 0.101994045 -0.060983837 0.04278664 0.10360744 -0.08106156 -0.006337803 0.049822308
0.0094423015 0.038969904 0.08950301 -0.04493149 -0.03381596 0.085818216 -0.06243149 -0.05590461
0.069255255 -0.026368039 0.027172482 0.021790395 -0.0449418 0.06872583 0.06404565 -0.0136139
-0.029661745 0.024036 -0.038642377 -0.016461903 0.045596182 -0.03129093 0.07756405 0.06166456
-0.07415927 -0.04878999 -0.027039764 0.078009315 -0.012910945 -0.100541115 0.091628924 -0.049126953
-0.05536157 -0.09178556 0.0518281 -0.023168169 -0.020951003 0.052650437 -0.008886047 -0.044604417
0.02421005 -0.074290425 -0.029156834 0.05082102 0.03659825 0.077491745 0.07526119 0.04176514
0.057946786 -0.047734477 0.023053527 0.03627658 -0.104912184 -0.07259494 0.03386432 0.021652892
-0.089386195 -0.03637284 -0.029583983 0.035698418 -0.06696156 0.09008496 0.08384216 -0.11310074
-0.10127436 0.011503732 -0.038299464 -0.07960908 -0.02083951 -0.05980113 -0.002449568 -0.091723956
-0.0027870142 0.073381044 0.032385774 -0.047782112 0.06619801 0.081278525 0.076100916 -0.094059244
0.09176155 0.060310964 -0.01658315 0.07999107 -0.058141854 -0.07071725 0.06322414 -0.020183664
-0.037708927 -0.0769261 -0.04562126 -0.050878208 -0.054275904 -0.05317596 0.0108162165 0.095223546
0.069369644 0.048148815 0.05598936 0.029983055 0.09264831 -0.050992195 0.07539413 0.09297001

layers.0.bias f4 [16]
00000000: 94dd d9bd ddd3 753d 47bf a5bd 38fe febc
00000010: c08a a5bb 93a0 c73d 356b d5bd 14d9 973d
00000020: 39be 2bbd 80ab 99bc ba8b b23d 5b86 5bbd
00000030: abf8 cbbd e21c d23d 2d97 abbd d1be b03c
-0.10637966 0.0600165 -0.08093124 -0.03112708 -0.0050519407 0.09747424 -0.10420839 0.07414451
-0.041929457 -0.018758535 0.08718057 -0.05359493 -0.09959539 0.10259415 -0.08378444 0.021575363

layers.2.weight f4 [8, 16]
00000000: 4120 d7bd 7175 053e 6ff6 913d 76a3 3cbe
00000010: 9c06 7c3e 09b8 11be def3 8cbc 58eb 8d3e
00000020: 24bf 293e 6686 9f3e 457f f33d ed43 c73e
00000030: 80bb 2abc f2ab 3abe d5f8 80bd 0d0f 21be
00000040: 1ae6 323e efa5 9bbe d353 0f3e f403 f33d
00000050: e08f a73d 664b 98bd fa31 243e a101 24bd
00000060: 8bb8 83be 8748 b2bd ff98 063e 6e0c 2b3d
00000070: d0c8 91bd f5e9 733e 9657 9c3c 1661 7f3d
00000080: bcfe 3d3e 0fa4 fb3d a1bd b6bd 708b 5b3e
00000090: d45b a9bd 343a 58be f05a 4abe ffe8 4dbe
000000a0: 5b2c cc3d 3533 ffbd 1778 8b3d 7f91 b0be
000000b0: 603d 59be 05ee c4bc 50f3 95bd 641d 6e3d
000000c0: be59 7abe 8d57 fb3c 64f7 f6bd 1447 783e
000000d0: 6c12 51be 7a95 19be 5a17 a4bd 54a9 68bd
000000e0: e7c4 05be 3e63 7bbe c02e f73b 9fef a83d
000000f0: b897 cdbd c001 c9bd e0c4 863e 0025 f53b
00000100: 2432 643e e4bd 71be 7486 42be 40b9 b93d
00000110: a834 6a3d a8e9 763e cee6 56be 4aff 45be
00000120: 3c6b 6dbd 2c29 4bbe 0a3d 5bbe 9238 dbbd
00000130: 4062 b1bc 1c05 85bd 7baf 143e 7865 b6bd
00000140: 66b9 023e d4d5 ef3d a462 b5bd 0441 563e
00000150: 885a 31bd 2e88 c7bd b0f3 703e 60dc 923c
00000160: 2458 67be 2e3c 4ebe 9cee e1bd 77fa 11be
00000170: b845 18be b01c 3d3d 0012 b2bb 0c1c d63d
00000180: 3dc5 81bd 8832 313d 429f 1b3e a031 913d
00000190: 0a96 073e 8525 983d 1d3d e73d 454e 163e
000001a0: 5f6e 563e e182 0a3e 9d60 f0bd e3e8 a33e
000001b0: 882e 4dbe 2e47 74be ec75 6abe 4188 6fbd
000001c0: 6b84 38be b28f 063e b028 15be 106b ec3c
000001d0: 54e1 1cbe 4450 05be 94c7 a63d ea29 72bd
000001e0: ce03 06bd 8aa0 ed3d 0cf5 95bd 4a42 fa3d
000001f0: 602f 19bd f1d9 01be f3b3 68bd 0949 203e
-0.10504199 0.13033082 0.071270816 -0.1842173 0.24611896 -0.1423036 -0.017206129 0.27718616
0.1657682 0.31157225 0.11889509 0.3891901 -0.01042068 -0.18229654 -0.06297461 -0.15728398
0.1747059 -0.30400035 0.1399682 0.118659884 0.08181739 -0.07436256 0.1603469 -0.040040616
-0.25726733 -0.0870524 0.13144301 0.0417599 -0.0711838 0.23819716 0.019084733 0.062348448
0.18554205 0.12287151 -0.089228876 0.2143991 -0.08269468 -0.21115953 -0.19761252 -0.20108412
0.09969398 -0.12460939 0.06810015 -0.34486005 -0.21214819 -0.024039278 -0.07321799 0.058133498
-0.24448296 0.030681396 -0.12058905 0.24245864 -0.20417184 -0.14998427 -0.080122665 -0.05680211
-0.13063394 -0.24549577 0.007543415 0.08248829 -0.10038704 -0.09814787 0.2632208 0.0074812174
0.22284752 -0.23607594 -0.18996602 0.09068537 0.057179123 0.2411257 -0.20986483 -0.19335666
-0.057963595 -0.19839925 -0.21410003 -0.10704149 -0.021653295 -0.06495115 0.14520065 -0.089060724
0.12766036 0.11710706 -0.08856705 0.20923239 -0.043299228 -0.09742771 0.2353046 0.017927349
-0.22592217 -0.20140144 -0.11031839 -0.14255701 -0.14870346 0.046169937 -0.0054342747 0.10454568
-0.06336448 0.04326108 0.15197471 0.07089543 0.13240829 0.07429031 0.11290953 0.14678295
0.2094054 0.13526489 -0.117371775 0.32013616 -0.20037282 -0.23855278 -0.22896546 -0.05847955
-0.18019263 0.13140753 -0.14566302 0.028859645 -0.15320331 -0.130189 0.08143535 -0.059122004
-0.032718472 0.11602886 -0.073221296 0.12219675 -0.037398696 -0.12680794 -0.056812238 0.1565286

layers.2.bias f4 [8]
00000000: 8e2e 5cbe 9858 35bd cd81 7e3d c8a0 cc3d
00000010: bef7 a93d a29f b63c 24a7 57be 8b11 043d
-0.21502134 -0.044273943 0.062135506 0.09991604 0.08299206 0.022292916 -0.21059853 0.032243293

layers.4.weight f4 [1, 8]
00000000: 9d01 c63e 0062 f8bd 8116 5ebe e0ed 40be
00000010: 3af1 1d3e b6d4 5fbd 235c 963e 311c ab3d
0.38673106 -0.12128067 -0.21688272 -0.18840742 0.15424052 -0.054646216 0.2936717 0.083549865
