HW1/models/model_1.ckpt (torch, 6270 bytes, 13 tensors)

layers.0.weight f4 [16, 8]
0	0x3e573993	0.21018057
1	0x3e347405	0.17622383
2	0xbe3e8fd4	-0.18609554
3	0x3e9ad4d9	0.30240515
4	0xbe60317b	-0.21893875
5	0xbd588775	-0.052863557
6	0x3dff0aaf	0.124532096
7	0x3d906708	0.07050902
8	0x3e34e208	0.17664349
9	0xbe04d656	-0.12972388
10	0x3e4679f6	0.19382462
11	0xbeb99e3b	-0.36253533
12	0xbe816169	-0.2526963
13	0x3dc926ad	0.0982183
14	0xbe78bb15	-0.24290116
15	0x3e16c503	0.14723592
16	0x3e47537f	0.19465445
17	0xbcb3e6c0	-0.021960616
18	0x3e427d83	0.18993191
19	0xbde9837b	-0.11402031
20	0x3e12c9ca	0.14334789
21	0xbd46da52	-0.04854805
22	0xbe406125	-0.18787058
23	0x3e52613b	0.20544903
24	0xbd593280	-0.053026676
25	0x3e2eed9a	0.17082825
26	0xbd79460b	-0.060857814
27	0xbde3c26b	-0.11121067
28	0xbe222284	-0.15833479
29	0xbe0a8766	-0.13528213
30	0xbea678f5	-0.32514158
31	0xbdf67e44	-0.12035802
32	0x3e5b4ec9	0.21416773
33	0xbe590130	-0.21191859
34	0x3d0d8653	0.03455193
35	0xbe312f55	-0.17303212
36	0xbe96ac0b	-0.29428133
37	0x3edaa701	0.4270554
38	0xbe33cfc4	-0.17559725
39	0xbd4dbf56	-0.0502313
40	0xbe2c324c	-0.16816062
41	0xbe9276db	-0.28606305
42	0x3d8561b9	0.0651278
43	0xbdf077f3	-0.117416285
44	0xbe8bdcc0	-0.27316856
45	0x3e594d87	0.2122098
46	0x3ee4ce81	0.446888
47	0xbd81df90	-0.06341469
48	0x3c9752b7	0.018472059
49	0x3de92258	0.11383504
50	0x3dbe5b30	0.092947364
51	0x3e8722ad	0.26393643
52	0xbdd816f5	-0.10551254
53	0x3e5b1441	0.21394445
54	0x3e7dcf3b	0.24786083
55	0xbe49dbf7	-0.19712816
56	0x3d8c7996	0.06859128
57	0x3dc7335e	0.097265944
58	0x3e02fcae	0.12791702
59	0x3e0610e5	0.13092382
60	0x3e56f8ff	0.20993422
61	0x3dbbb542	0.091654316
62	0x3eafa9b7	0.3430917
63	0x3db064af	0.08612954
64	0xbe0b0409	-0.13575758
65	0xbda75c42	-0.08171894
66	0x3e9770ef	0.2957835
67	0x3e1b0a86	0.15140733
68	0x3cd2d59f	0.025736628
69	0x3eb08620	0.3447733
70	0x3da5bdad	0.080928184
71	0xbd558ecb	-0.05213813
72	0x3eb37690	0.35051394
73	0x3e94cc0b	0.29061922
74	0xbd660af5	-0.056162793
75	0xbe9899fb	-0.29804978
76	0xbddef73c	-0.10887
77	0x3e145848	0.14486802
78	0x3e3704e7	0.17872964
79	0x3e8318a6	0.25604743
80	0xbeaaf88b	-0.33392748
81	0xbe929467	-0.28628847
82	0xbe5608e5	-0.2090183
83	0xbda2bddf	-0.07946371
84	0x3d8dd26c	0.069249004
85	0xbe9a2fbb	-0.3011454
86	0x3e3a851e	0.18214843
87	0xbeaa93f7	-0.33316013
88	0x3e862ed5	0.26207605
89	0xbeb8d18d	-0.36097375
90	0x3e7ca270	0.2467134
91	0xbe80eb65	-0.25179592
92	0xbe81969e	-0.25310224
93	0xbda629ca	-0.081134394
94	0x3c68a65b	0.0141998185
95	0xbd29faa0	-0.04149878
96	0xbdc404a7	-0.095712
97	0xbe8044b2	-0.2505241
98	0xbe51c6bb	-0.20485966
99	0xbe3a273c	-0.18179029
100	0x3e389da5	0.18028887
101	0xbe86f041	-0.26355174
102	0xbe0b433e	-0.1359987
103	0xbe04da2f	-0.12973855
104	0xbd4293e7	-0.047504332
105	0x3b3485f3	0.002754566
106	0x3dd859a3	0.10563972
107	0xbec7563d	-0.38932982
108	0x3d659ace	0.056055836
109	0x3bdf03c1	0.0068058674
110	0x3e897c09	0.26852444
111	0x3eaa9262	0.33314806
112	0x3e60e27d	0.21961398
113	0xbe44006e	-0.19140789
114	0xbe7a8e43	-0.24468331
115	0xbeab404b	-0.3344749
116	0x3d942da3	0.07235267
117	0xbe580347	-0.21095
118	0xbda34b42	-0.07973339
119	0x3e9742ea	0.2954324
120	0x3d99a4e6	0.07502155
121	0x3e0d04ec	0.13771409
122	0xbd46de90	-0.048552096
123	0x3d8540c1	0.065064915
124	0x3e58554f	0.21126293
125	0x3db353b5	0.087562
126	0xbe16a69e	-0.14711997
127	0xbed4dc75	-0.41574445

layers.0.bias f4 [16]
0	0xbe631424	-0.22175652
1	0xbd6d63cc	-0.0579565
2	0xbcec7df7	-0.028868658
3	0xbe59877e	-0.21243092
4	0x3e766a7f	0.24064063
5	0xbea5c47e	-0.32376474
6	0x3dca0265	0.09863738
7	0xbe3f8719	-0.1870388
8	0xbd7e5e03	-0.062101375
9	0x3eb2d662	0.34929186
10	0x3e52d60e	0.20589468
11	0xbe091dac	-0.13390225
12	0x3d9c152c	0.07621226
13	0xbdf454ca	-0.11930235
14	0x3c2efedd	0.010680881
15	0xbea98ed2	-0.33116776

layers.2.weight f4 [16]
0	0x3f82b674	1.021193
1	0x3f8020b0	1.0009975
2	0x3f85ad67	1.0443543
3	0x3f7f6d8a	0.9977652
4	0x3f76c4ab	0.9639384
5	0x3f7d7196	0.99001443
6	0x3f805467	1.0025758
7	0x3f85e2ac	1.04598
8	0x3f784220	0.969759
9	0x3f82b129	1.0210315
10	0x3f763716	0.96177804
11	0x3f8911e5	1.0708586
12	0x3f75420b	0.958039
13	0x3f71c324	0.94438386
14	0x3f7d3833	0.9891388
15	0x3f77f9f6	0.96865785

layers.2.bias f4 [16]
0	0x3b52e2e9	0.0032178706
1	0xbcb343c3	-0.021882897
2	0xbc910904	-0.017704494
3	0xbbb1fe44	-0.005431922
4	0x3ca088df	0.019596515
5	0x3c3abdfb	0.011397834
6	0xbc51613d	-0.012779531
7	0x3b310427	0.0027010532
8	0x3c9c99a0	0.019116223
9	0xbc1858a8	-0.009298481
10	0xba49cdb7	-0.00076981954
11	0xbc3b2476	-0.011422267
12	0x3c6d0d07	0.014468438
13	0xbce41174	-0.027840354
14	0xbd2189f5	-0.039438207
15	0xbb131fbf	-0.0022449342

layers.2.running_mean f4 [16]
0	0x3f862a7a	1.0481713
1	0x40d3ec9c	6.622633
2	0x4137cf9b	11.488185
3	0xbdf00efd	-0.11721609
4	0x402f8245	2.742326
5	0x3f957bd2	1.1678412
6	0x40a53b3a	5.16348
7	0x414c3c86	12.764776
8	0x418bd8dd	17.48089
9	0x40b64e6f	5.6970744
10	0xbe868671	-0.26274446
11	0x3fea26dc	1.8293109
12	0xbe4f9c25	-0.20274408
13	0x411ea5dc	9.915493
14	0xbda34b02	-0.07973291
15	0xbe11c3d9	-0.14234866

layers.2.running_var f4 [16]
0	0x40393bfe	2.8942866
1	0x4128a62b	10.540568
2	0x408078cb	4.014745
3	0x3a547bcf	0.0008105607
4	0x40609478	3.5090618
5	0x3f2c95f3	0.67416304
6	0x41bad9c3	23.356329
7	0x41119f69	9.1014185
8	0x41ca2d7b	25.272207
9	0x3feaa0b5	1.8330294
10	0x3af3a127	0.0018587456
11	0x406b3ebd	3.6757042
12	0x3b176285	0.0023099494
13	0x415668f3	13.400622
14	0x3b4a0289	0.0030824265
15	0x39fa96df	0.00047796124

layers.3.weight f4 [8, 16]
0	0x3e051263	0.12995295
1	0x3e301c87	0.17198382
2	0xbe862ec0	-0.26207542
3	0xbd171b30	-0.036891162
4	0x3e934d53	0.2876993
5	0xbd91b78f	-0.07115089
6	0x3de6844b	0.11255702
7	0x3e6bec9d	0.2303948
8	0x3e14ae6b	0.1451966
9	0x3d35ebd7	0.044414368
10	0x3de820ec	0.11334404
11	0xbe739f27	-0.2379118
12	0xbe4ff462	-0.20308068
13	0x3e002f12	0.12517956
14	0xbe87f279	-0.2655218
15	0xbd788171	-0.06067032
16	0x3e90d3e4	0.2828666
17	0x3d7ad239	0.06123564
18	0x3baf7343	0.0053543164
19	0xbdb88335	-0.09009401
20	0xbc7ef487	-0.01556123
21	0x3ea28c78	0.31747794
22	0x3e575be1	0.21031143
23	0x3df11ceb	0.11773094
24	0x3cb898db	0.022533825
25	0x3e6ed550	0.2332356
26	0xbe37fa96	-0.17966685
27	0xbc43130c	-0.011906397
28	0xbc35fdfe	-0.01110792
29	0x3c9dcc13	0.01926235
30	0x3e02caf5	0.12772734
31	0x3dfb54f8	0.12272066
32	0xbe7758ff	-0.24155043
33	0xbd473a5c	-0.04863964
34	0x3d04565f	0.032308932
35	0x3e8ea28c	0.27858388
36	0xbcdebcd2	-0.027189646
37	0xbe83da2e	-0.25752395
38	0x3e0e1679	0.1387576
39	0xbe037158	-0.12836206
40	0xbe12262d	-0.14272375
41	0xbe76f9f2	-0.24118784
42	0x3e09b314	0.13447219
43	0x3d8c96a9	0.06864674
44	0x3bc40b66	0.005982804
45	0x3da017ef	0.07817065
46	0xbca6d50e	-0.020365264
47	0xbd8e26be	-0.06940983
48	0x3d969386	0.073523566
49	0xbe2d4c18	-0.16923559
50	0xbdaa4072	-0.08313073
51	0x3df6814d	0.12036381
52	0x3dd27ad9	0.102773376
53	0x3e33ae56	0.17546973
54	0x3e3cd983	0.18442349
55	0x3da3f96e	0.08006559
56	0x3e028962	0.1274772
57	0xbde96fe8	-0.113982975
58	0x3d8ef116	0.06979577
59	0x3dc0d884	0.09416297
60	0xbe74e42d	-0.23915167
61	0xbe22fcc7	-0.1591674
62	0x3da7f08b	0.08200177
63	0x3d67c44a	0.05658368
64	0xbdfd2fe6	-0.123626515
65	0xbe0b66a6	-0.13613376
66	0xbe19fff0	-0.15039039
67	0xbb88f613	-0.004179725
68	0xbddeee55	-0.10885302
69	0x3e8540a4	0.2602588
70	0x3e9c9b48	0.3058722
71	0xbe502178	-0.20325267
72	0xbe27f23a	-0.16400996
73	0x3c0b6cb0	0.0085098
74	0xbdb6a16d	-0.08917508
75	0xbea88cd6	-0.3291995
76	0xbdbcd653	-0.092205666
77	0xbe1c03ca	-0.1523582
78	0xbd69f81d	-0.057121385
79	0xbe2070da	-0.1566805
80	0xbdae2760	-0.08503604
81	0x3ea1ad3e	0.31577486
82	0x3e7e8c13	0.24858122
83	0x3cda7bd5	0.026670376
84	0x3cb762a5	0.022385905
85	0x3c2bb25e	0.010479538
86	0x3d672aa5	0.056437153
87	0xbe98cfb5	-0.29845968
88	0x3e106bc1	0.14103605
89	0x3e036448	0.12831223
90	0x3d3e5858	0.04647097
91	0x3eb56861	0.35431197
92	0xbcbd4a59	-0.02310674
93	0xbda0b756	-0.078474686
94	0x3e8a5ff7	0.2702634
95	0xbdc9612f	-0.098329894
96	0x3bd7d455	0.0065865912
97	0xbe43d0e2	-0.19122651
98	0xbe1f75e4	-0.15572315
99	0xbe5f21e4	-0.21790272
100	0xbc9d559b	-0.019205859
101	0x3c35624f	0.011070802
102	0x3df969c5	0.12178377
103	0x3eb004df	0.34378716
104	0x3e8bcebd	0.27306166
105	0x3e384d08	0.17998135
106	0x3d02651a	0.0318347
107	0x3d198c3f	0.037487265
108	0x3debf6fa	0.115217164
109	0xbde7c049	-0.11315972
110	0x3dcb581a	0.099289134
111	0x3e54fc63	0.20799403
112	0xbc50ba46	-0.012739724
113	0x3e296c4e	0.16545221
114	0x3dc42c92	0.095788136
115	0xbe489206	-0.19586954
116	0xbda9f775	-0.08299152
117	0xbe0ea1a8	-0.13928854
118	0xbe7f6331	-0.24940182
119	0xbd174c08	-0.036937743
120	0xbe1a2721	-0.15053989
121	0xbdde40db	-0.10852214
122	0x3c9e2c77	0.019308312
123	0xbdd23b08	-0.102651656
124	0xbe21d999	-0.15805663
125	0x3e3aba99	0.18235244
126	0x3e3760b0	0.17907977
127	0x3e20304d	0.15643425

layers.3.bias f4 [8]
0	0x3e58c42e	0.21168587
1	0x3dbe0782	0.09278776
2	0xbd0eeec3	-0.03489567
3	0xbdc7a271	-0.0974778
4	0x3df21b76	0.11821644
5	0xbe889601	-0.26676944
6	0x3b3df402	0.0028984551
7	0xbe38d035	-0.18048175

layers.5.weight f4 [8]
0	0x3f7ef914	0.99598813
1	0x3fa5b1a4	1.2944837
2	0x3f957682	1.1676791
3	0x3f77ce41	0.96799093
4	0x3f8592d6	1.0435436
5	0x3f7f1a61	0.99649626
6	0x3f80929d	1.0044743
7	0x3f886346	1.0655296

layers.5.bias f4 [8]
0	0x3f56d421	0.83917433
1	0x40249aa6	2.571939
2	0xbfc7cb3a	-1.5608895
3	0x3f181227	0.594027
4	0x3f9643f9	1.1739494
5	0xbf7a299d	-0.97719747
6	0x3f6ac18a	0.9170157
7	0xbf6b90cd	-0.92017823

layers.5.running_mean f4 [8]
0	0x3f213fc6	0.62987936
1	0x3ec4d6a1	0.38445
2	0x3eb9089a	0.36139375
3	0x3ed8d464	0.4234954
4	0x3edbabdc	0.42904556
5	0x3ef2df74	0.47436106
6	0x3ee4d6a0	0.44694996
7	0x3e0c67a3	0.1371141

layers.5.running_var f4 [8]
0	0x3f5a5507	0.8528599
1	0x3ef5df2c	0.4802183
2	0x3e1c8671	0.1528566
3	0x3f0ba7c8	0.5455289
4	0x3e78b55e	0.24287936
5	0x3ed30fc4	0.41222966
6	0x3f11ea1d	0.56997854
7	0x3cffb36f	0.03121349

layers.6.weight f4 [1, 8]
0	0x3f68ea09	0.9098211
1	0x40252678	2.580473
2	0xbfd219cb	-1.6414121
3	0x3f33756f	0.70101064
4	0x3f9f8bcf	1.2464541
5	0xbf812e97	-1.0092343
6	0x3f7afa04	0.98037744
7	0xbf82f075	-1.0229632
