HW1/models/model_mymodel.ckpt (torch, 41115 bytes, 19 tensors)

layers.0.weight f4 [64, 88]
000000 1e f4 76 3d 29 33 48 3d cd 1c 87 bd 59 8c a2 3d
       0.060291402 0.048876915 -0.0659729 0.079369254
000010 dd 5c 80 bd 9a a5 13 bd b1 75 f9 3c 84 1c 94 bb
       -0.06267712 -0.0360466 0.030451627 -0.004520001
000020 b4 57 68 3d fb 40 0c bd c7 17 23 3c 18 f7 91 bd
       0.056724265 -0.034241658 0.009954399 -0.071272075
000030 71 db 92 bd 49 50 ba 3d fc bc 62 bd 14 d6 9d 3c
       -0.071707614 0.090973444 -0.05535601 0.01926712
000040 75 6b 90 3d 26 e5 07 bc 3d 89 a5 3c e5 dd 63 bd
       0.07051746 -0.008294379 0.020207042 -0.055631537
000050 a3 a8 19 3d d1 98 99 bc df a5 06 bd d9 95 83 3d
       0.03751434 -0.018749626 -0.03287303 0.064250655
000060 fd ea 45 bc 28 9b 56 3d 18 2a 98 bc 9b 7d 4c bd
       -0.012079951 0.052394062 -0.01857476 -0.049924474
000070 ff db 4b bd 39 10 5a bd fc 6c b4 bd d5 d0 b4 bc
       -0.04977035 -0.053238127 -0.088098496 -0.022072235
000080 8a 82 7a 3d 9b 45 7e bd c8 21 11 3d 6c 5b 74 bd
       0.061159648 -0.0620781 0.035432607 -0.0596575
000090 80 fd b0 bd da cf d5 3d c1 b0 86 bd eb 8f 02 bd
       -0.08642101 0.10440035 -0.06576682 -0.031875532
0000a0 fc 99 c7 bd 13 a0 c1 bd 3b 6a ac 3d 45 67 a8 bb
       -0.09746167 -0.0945436 0.08418699 -0.005139264
0000b0 17 65 6b bd 5b 0a 68 3d ad dd 52 3d 8b 3e 76 bd
       -0.057469454 0.0566505 0.051480938 -0.06011824
0000c0 c7 ae d0 bb 3f 13 01 3d 38 b5 7a 3c 48 2e a0 3d
       -0.0063684913 0.031512495 0.015301995 0.078213274
0000d0 52 71 16 bd e7 d5 45 3d f2 20 61 3d 54 32 b9 bd
       -0.036729164 0.048299696 0.05496306 -0.090428025
0000e0 33 02 6d 3c 83 fd f2 3c 43 ce ad 3d 8b fc 2e 3d
       0.014465856 0.0296619 0.08486607 0.042721312
0000f0 f0 ab 80 3d 57 b7 c6 bb 9f 52 9a 3d 0c 94 f0 3c
       0.062827945 -0.0060643363 0.0753529 0.02936747
000100 f2 c3 2c bd b0 b3 eb bc c3 08 ce 3d 86 63 46 3d
       -0.042179056 -0.028772205 0.10060265 0.048434757
000110 1d 83 0e 3c 02 a3 b6 3d 11 c8 31 3c bd f9 d1 bc
       0.008698252 0.0891781 0.010850922 -0.02563178
000120 cb 12 ab 3d d6 50 bb 3d 51 6b 8b 3d 56 36 ba bd
       0.08353194 0.091462776 0.06807578 -0.09092395
000130 f3 aa 1c bc 81 6b 36 3d b2 ab 6d 3c 1f 37 a7 3d
       -0.009562242 0.044536117 0.014506267 0.081648104
000140 ca ab c6 bd ef c7 aa bd 9f ea a0 bd e3 ca e5 bc
       -0.09700735 -0.083389156 -0.078572504 -0.028050845
000150 e9 5d b9 3c c0 f9 8f bd b2 f6 96 3d 9f 67 cb bd
       0.022627788 -0.07030058 0.07371272 -0.099318735
000160 2e 80 ad 3d 71 49 cb bd dd 62 94 3d 5d 62 93 bd
       0.08471714 -0.09926117 0.07245419 -0.07196496
000170 7e f2 82 bd c1 df c4 ba 8a 7a 0e 3d 21 4d c1 3b
       -0.06393908 -0.0015020297 0.03478483 0.005899087
000180 6e e9 df bc 8d 65 99 bd 0f 28 83 bd 61 62 54 bd
       -0.027332988 -0.074900724 -0.06404125 -0.051851634
000190 3b b4 62 3d 34 28 a1 bd 1b 5c 24 bd 14 d5 38 bd
       0.055347662 -0.07868996 -0.0401269 -0.045125082
0001a0 6c e6 2d bc f5 09 2f 3c 14 49 28 bd e9 56 c3 bd
       -0.010614019 0.010683526 -0.041085318 -0.09538061
0001b0 de cc cd 3c a4 ec 62 3d a2 d6 d1 3d 34 62 6a 3d
       0.025122102 0.05540146 0.10246016 0.05722256
0001c0 58 1d 89 3d 14 1f 6d bd 50 c5 c8 bd 24 f4 c2 bd
       0.0669505 -0.057890967 -0.098032594 -0.095192224
0001d0 54 e5 b3 3c 63 fc 45 bd 37 dd 8c bc 43 eb aa 3d
       0.021959938 -0.048336398 -0.017195327 0.08345654
0001e0 4d 73 97 3c d8 ab 1b 3d cb 45 38 3d 5f 57 be 3c
       0.018487597 0.03800568 0.044988435 0.023235021
0001f0 d4 ef 6d 3d 11 78 16 bb 7a 9c 80 bd cd c2 a6 bd
       0.058090046 -0.0022959749 -0.062798455 -0.08142624
000200 63 37 8d bd a7 d0 94 bc c7 46 70 bc 4c a7 86 bd
       -0.0689533 -0.0181659 -0.014665312 -0.06574878
000210 96 19 94 3d 0a 51 ce bd 17 45 ee 3c 3a 4c 61 bd
       0.07231443 -0.10074051 0.029085679 -0.055004336
000220 f0 21 8e bc 13 57 d2 3d 2d 47 7d 3d 4a 2b 27 bd
       -0.017350167 0.10270514 0.061835457 -0.040812768
000230 01 c5 ae 3c 34 d7 17 bd b7 b9 68 3b 29 a0 c6 bd
       0.021334173 -0.037070468 0.0035511085 -0.09698517
000240 a4 f7 d2 bb f1 4b d7 3d d4 8f 6f bd 3b fc 37 3d
       -0.0064382125 0.105125315 -0.058486775 0.04491828
000250 2c 26 cc 3d 65 c9 a6 bd 9f e3 f2 ba 45 1a 55 3d
       0.09968218 -0.08143882 -0.0018530971 0.052027006
000260 1d 0b 47 3c 64 f1 2a 3d 0f 29 bc 3d c7 b2 36 bd
       0.012148646 0.041734114 0.09187519 -0.04460409
000270 ab ff 0a bd 45 88 b4 3d 11 0a 83 bd 24 b4 63 bd
       -0.03393523 0.08815054 -0.063984044 -0.055591717
000280 d4 7a 8e 3d 7d 0d c4 bc 76 bc f1 3c 39 06 ca 3c
       0.06957021 -0.023932213 0.02950881 0.02466117
000290 0d 2c 2e bd 11 eb 90 3d 65 0b 77 3d fb c6 64 bc
       -0.04252248 0.07076085 0.0603136 -0.013963456
0002a0 84 42 ce bc c8 5a d7 3c 54 b5 13 bd ff a4 5f bc
       -0.025178201 0.026288405 -0.0360616 -0.013650178
0002b0 e2 fa 44 3d da 37 fe bc bf 90 9e 3d 2e 72 83 3d
       0.048090823 -0.031032491 0.07742452 0.064182624
0002c0 62 18 4f bd 62 d9 47 bd 36 e2 de bc 6f a7 9f 3d
       -0.050560363 -0.048791297 -0.027207475 0.07795607
0002d0 87 1e 52 bc 2b 83 cd bd a2 b4 bb 3d 72 1a 48 bd
       -0.012824661 -0.10034784 0.09165312 -0.048853345
0002e0 1a 7c 62 bd db 42 bc bd c3 cd 54 3d d7 b7 be bc
       -0.055294134 -0.09192439 0.051954042 -0.023281021
0002f0 88 ad ac bc 82 b4 57 3d 77 63 11 bc 3f a7 36 bd
       -0.02107884 0.05266238 -0.008873812 -0.044593092
000300 35 da c5 3c 69 2e 98 bd 08 f9 ee bc 4f 2a 50 3d
       0.0241519 -0.07430727 -0.029171482 0.0508216
000310 e2 e8 15 3d 7c b4 9e 3d e0 22 9a 3d 49 13 2b 3d
       0.036599047 0.077492684 0.07526183 0.04176644
000320 d1 5a 6d 3d e9 83 43 bd 3a dd bc 3c 1d 98 14 3d
       0.057947937 -0.04773322 0.023054708 0.03627788
000330 74 db d6 bd 0a ac 94 bd eb b6 0a 3d 1b 65 b1 3c
       -0.10491076 -0.07259376 0.03386585 0.021654656
000340 ba 0e b7 bd 89 fa 14 bd bd 54 f2 bc 9d aa 13 3d
       -0.08938356 -0.03637174 -0.029581422 0.03605138
000350 18 62 88 bd f6 c5 ba 3d 48 6c c4 3d eb 9e d0 bd
       -0.06659335 0.09119789 0.095909655 -0.10186561
000360 0b b0 b4 bd 37 79 7e 3c 74 36 f3 bc b3 99 9c bd
       -0.0882264 0.01553183 -0.029689051 -0.07646503
000370 d4 26 48 bc 39 4b 5f bd 5f 9f 7d 3b 9c bb b6 bd
       -0.012216289 -0.054515097 0.003869973 -0.089225024
000380 12 8b c5 ba b7 1f ad 3d 19 6d 08 3d e5 e6 2e bd
       -0.0015071353 0.08453315 0.03330717 -0.042700667
000390 0f 15 94 3d d4 7d a7 3d ca ed 9c 3d 82 3a bd bd
       0.07230579 0.08178297 0.07662542 -0.09239675
0003a0 e0 c4 d4 3d 73 b8 92 3d 27 30 76 bb 50 90 ab 3d
       0.103891134 0.07164087 -0.0037565322 0.08377135
0003b0 c6 78 4a bd 2b 90 8a bd 99 c8 92 3d bc d1 72 bc
       -0.049431585 -0.06765779 0.07167167 -0.014820512
0003c0 4a 0b fd bc 68 df 96 bd 11 11 33 bd 6e 68 22 bd
       -0.030889172 -0.0736683 -0.043717448 -0.039650373
0003d0 d4 67 5a bd e7 fd 42 bd ba 53 a0 3c 47 7a c4 3d
       -0.053321674 -0.04760542 0.019571174 0.09593635
0003e0 a5 8f 8f 3d 97 05 50 3d 49 1c 8b 3d 01 f4 27 3d
       0.0700982 0.05078658 0.06792504 0.041004185
0003f0 98 23 d7 3d 89 fe 41 bd 03 1e ac 3d 3b 22 c4 3d
       0.10504836 -0.047361884 0.08404162 0.095768414

layers.0.bias f4 [64]
000000 14 0f cc bc a3 e7 c3 bd 40 41 0a 3c e0 8e bb 3c
       -0.024909534 -0.095656656 0.008438408 0.022895277
000010 30 2c f7 3b bc 46 a3 3d df 5d 3c bd 97 05 4a bd
       0.0075431094 0.07972476 -0.04598796 -0.049321737
000020 4a f8 99 3d b0 64 d8 3c 2c 4f 95 3d 72 7a 8e 3d
       0.075180605 0.026415199 0.072904915 0.06956948
000030 96 51 c4 3d be 14 70 bd 50 80 d2 3c 34 b5 07 bd
       0.09585874 -0.05861353 0.02569595 -0.033131793
000040 ec 40 f9 bc f4 a6 47 3d 48 7b e4 3c 08 78 3c 3d
       -0.030426465 0.048743203 0.027890816 0.04601291
000050 4e 16 cb 3d 58 ca 39 3d c4 75 af 3d de 88 af 3d
       0.09916364 0.045358986 0.08567384 0.08571027
000060 52 54 b1 bd 60 07 2d bc ae c3 92 3d a4 05 c5 bd
       -0.08658661 -0.01056084 0.07166229 -0.096202165
000070 44 fa aa bd 40 54 d0 ba 1e a3 bc bd 6f c1 96 bd
       -0.08348516 -0.0015894249 -0.092108 -0.07361113
000080 2c 8a a5 3d ed ba d5 bd 74 c1 95 3d 9c 2c 57 3d
       0.08082995 -0.10436044 0.07312289 0.052532777
000090 e0 fa 69 3d 0d 72 bb bd 40 8b a2 bd 04 b9 57 3d
       0.05712402 -0.09152613 -0.07936716 0.05266668
0000a0 01 8b 4c bd f4 ca 99 3d 08 f4 13 3d 00 74 c7 3b
       -0.049937252 0.07509413 0.0361214 0.0060868263
0000b0 64 45 c4 3d fc 82 6d 3d 00 fc bf 3b d8 e8 cd bc
       0.09583548 0.057986245 0.005858898 -0.025135443
0000c0 ac ff ce 3d 91 3b 44 bd ae eb 31 bd 0c 22 82 3d
       0.10107359 -0.04790837 -0.043437652 0.0635415
0000d0 ee 53 2c bd 94 0e 61 3d c0 f5 b4 bd 00 bc 96 b9
       -0.04207223 0.054945543 -0.088359356 -0.000287503
0000e0 c0 a9 05 3d f8 71 f2 3c b4 80 bb bd d2 66 67 bd
       0.03263259 0.02959536 -0.091554075 -0.05649454
0000f0 24 0f 11 bd e2 16 27 bd 38 04 43 3d e8 d3 85 3d
       -0.03541483 -0.040793307 0.047611445 0.065345585

layers.1.weight f4 [64]
000000 96 e0 7f 3f a3 04 80 3f 94 34 80 3f 26 f2 80 3f
       0.99952066 1.0001415 1.0016046 1.0073898
000010 5b 7f 80 3f 70 1e 7f 3f 6b 60 80 3f bc 57 7e 3f
       1.0038866 0.9965582 1.0029424 0.9935262
000020 90 0b 80 3f 0e 8f 80 3f 07 70 7e 3f 3a 00 80 3f
       1.0003529 1.0043657 0.9938969 1.0000069
000030 8e ac 7e 3f f4 04 80 3f 28 6e 80 3f 32 ad 7e 3f
       0.9948205 1.0001512 1.0033617 0.99483025
000040 4e b2 80 3f c1 52 7f 3f ac 6e 80 3f f2 06 7e 3f
       1.0054414 0.9973565 1.0033774 0.9922935
000050 e2 ed 7f 3f 66 a4 7e 3f 6c 28 82 3f 23 ee 7f 3f
       0.99972355 0.994696 1.0168586 0.9997274
000060 65 4a 7f 3f 8a 57 80 3f ce c2 7f 3f 9f 02 81 3f
       0.9972289 1.0026715 0.99906623 1.0078925
000070 45 17 80 3f 84 36 80 3f 61 a0 7d 3f d5 ed 7f 3f
       1.0007101 1.0016637 0.99072844 0.9997228
000080 ab 43 80 3f 18 86 7f 3f 6e ed 7e 3f 87 70 7f 3f
       1.0020651 0.99813986 0.9958104 0.9978108
000090 6c 58 7f 3f 5d 22 80 3f 66 30 7f 3f 5c 6d 80 3f
       0.99744296 1.0010487 0.99683225 1.0033374
0000a0 f1 cc 7f 3f 7d 3b 80 3f 1f 89 7f 3f e8 49 80 3f
       0.9992209 1.0018154 0.99818605 1.0022554
0000b0 02 6d 7e 3f 74 3c 80 3f ec 41 80 3f c7 8c 80 3f
       0.9938508 1.0018449 1.0020118 1.0042962
0000c0 af 35 80 3f 9f 2b 7f 3f d1 b9 7f 3f 1b f4 7f 3f
       1.0016383 0.99675936 0.9989291 0.9998185
0000d0 25 2f 7f 3f fb 98 7f 3f 78 03 80 3f 09 f4 7e 3f
       0.9968131 0.99842805 1.0001059 0.9959112
0000e0 0b d5 7f 3f 97 d6 80 3f 6c cb 7e 3f 3b 0b 80 3f
       0.9993445 1.0065488 0.9952915 1.0003427
0000f0 78 01 80 3f 5c 46 80 3f 6a 5c 80 3f e5 fe 7f 3f
       1.0000448 1.0021472 1.0028203 0.99998313

layers.1.bias f4 [64]
000000 3f 74 0c 3c 27 26 06 3a f2 33 6a ba 35 f1 73 bc
       0.008572637 0.00051173795 -0.0008934132 -0.014889051
000010 5b 03 ff 3b 6b b9 1d bc db f3 3d 3c 60 da c7 3b
       0.0077823824 -0.009626727 0.011593784 0.0060990304
000020 69 93 d2 ba dc 6f 5f ba e3 a3 4d 3c 53 1e 80 bb
       -0.001606566 -0.0008523443 0.012551281 -0.003909865
000030 2c e0 dc 3b 3d 8d d6 3b aa 0f 83 3b de f1 19 b9
       0.0067405906 0.0065475986 0.00399967 -0.0001468132
000040 8c de 27 bc 5b 40 48 3b ae 9c e4 3a 60 59 f5 bc
       -0.01024593 0.0030555937 0.0017441714 -0.029949844
000050 d7 1d 45 3c d3 20 19 bb 1b 60 1e bc da 4d 0d 3c
       0.01203104 -0.0023365512 -0.009666468 0.008624518
000060 b6 f9 13 3c 32 f9 cc 3a b7 c0 48 bc 78 d6 13 3c
       0.009031704 0.0015638231 -0.012252978 0.009023301
000070 d1 0a f0 39 26 73 c7 3a c0 7e 08 3c 77 05 03 bb
       0.00045784426 0.0015216812 0.008331001 -0.001999227
000080 84 f5 40 bc 43 67 95 bc 75 fc 68 3b 2b b0 1f bb
       -0.0117772855 -0.018237716 0.0035550867 -0.002436648
000090 03 bd 7a 3a 78 e9 d4 bb d7 12 6a 3a 00 7b 92 3b
       0.0009564908 -0.006497558 0.0008929199 0.004470229
0000a0 fe 10 78 bc a9 f1 39 ba 2d 56 1a bc bb 7d 8c 3b
       -0.01514077 -0.00070932 -0.00941996 0.004287449
0000b0 6f 95 35 3a 83 15 95 3c b5 56 4f ba 16 4e 4c b8
       0.00069268694 0.018198734 -0.00079093437 -4.8710113e-05
0000c0 23 1e a4 bb 5a 49 ac 3b ff 4d 4e 3b 06 72 c4 3b
       -0.0050084754 0.0052577676 0.0031479595 0.005995038
0000d0 dd 55 14 3a 7c ab 20 bc d5 51 37 bc 13 53 7e 3c
       0.00056585466 -0.00980651 -0.011188944 0.015522736
0000e0 e0 cd e2 ba 2e 02 db 3b 28 ed 17 bb 2b 0d 19 bb
       -0.0017303787 0.0066836094 -0.0023182128 -0.0023353796
0000f0 28 05 9a bb 3b 4d 6e 3c a6 e0 17 3c 5e b5 23 bb
       -0.0047003217 0.01454478 0.009269869 -0.002497993

layers.1.running_mean f4 [64]
000000 a2 d1 a9 42 ea c3 fd 42 fe c5 76 c2 e8 ab c9 c2
       84.90944 126.882645 -61.69335 -100.835754
000010 45 f4 ce c2 84 41 0e 43 9b 88 bb c2 ab b6 f0 42
       -103.47709 142.25592 -93.76681 120.35677
000020 d8 fc 56 42 57 f7 3b 42 d1 9e b8 42 7d 15 ff 42
       53.746918 46.991543 92.31019 127.54197
000030 69 03 1e c3 42 d0 86 42 3f c9 ab c2 a5 fc ca 42
       -158.01332 67.40675 -85.89306 101.49345
000040 46 e0 05 c3 11 47 da c2 d3 f0 f4 42 6d 5e e6 c0
       -133.87607 -109.1388 122.47036 -7.1990266
000050 14 89 91 42 2a 7b 2f 42 96 75 95 c1 ce c0 a9 42
       72.76773 43.870277 -18.682415 84.87657
000060 0e 23 12 c3 d5 66 d8 c2 de a9 0f c3 25 51 0b c2
       -146.13693 -108.20084 -143.66354 -34.829243
000070 06 8f 97 41 4d 5d c4 c2 2a 41 43 c2 fe 3a c4 c2
       18.944836 -98.18223 -48.813637 -98.11522
000080 72 9e 09 43 bb c5 f5 c2 e5 10 fc c2 68 e8 b3 42
       137.61893 -122.88619 -126.033 89.95392
000090 af f0 00 c3 76 13 e2 c2 d9 6f d7 42 b2 b8 c9 42
       -128.94017 -113.03801 107.71845 100.86073
0000a0 56 05 bc 42 e1 77 07 43 d7 57 e7 c2 e4 22 aa c2
       94.01042 135.46828 -115.67156 -85.068146
0000b0 32 74 21 43 ec f6 d8 40 a4 27 c3 c2 3a f2 ae c2
       161.45389 6.780142 -97.57742 -87.4731
0000c0 8e e6 27 43 08 22 b9 42 23 9b 29 43 d4 0e 92 c2
       167.9006 92.56647 169.606 -73.02896
0000d0 d6 e8 3b 42 a5 ed c0 c2 0d 3f 19 42 f6 38 fa 41
       46.97738 -96.46415 38.311573 31.277813
0000e0 a6 bd ea c2 6d e5 af c2 24 89 14 c3 1d c3 4d c2
       -117.37041 -87.9481 -148.5357 -51.44054
0000f0 0f 1a 11 c3 e1 7f 24 43 76 9a d9 c2 92 d1 ba c1
       -145.10179 164.49953 -108.80168 -23.35233

layers.1.running_var f4 [64]
000000 a9 0f 30 45 31 00 aa 45 66 40 01 45 83 b1 02 45
       2816.9788 5440.024 2068.025 2091.0945
000010 c8 83 38 45 dc 61 c8 45 98 05 67 45 e8 59 4e 45
       2952.2363 6412.2324 3696.3496 3301.6191
000020 09 e8 9f 43 17 da 31 44 bb 75 96 45 65 b4 dc 45
       319.81277 711.40765 4814.7163 7062.5493
000030 ef 6d cc 45 5d b6 2e 45 2b 13 63 45 ea b7 3e 45
       6541.7417 2795.3977 3633.198 3051.4946
000040 2b 90 f3 45 16 7d c8 44 96 43 d9 45 5f 36 9c 42
       7794.021 1603.9089 6952.448 78.10619
000050 11 61 11 45 25 1e 30 44 b1 51 a6 43 fe 1d 1e 45
       2326.0667 704.471 332.6382 2529.8745
000060 8b c6 09 46 b5 e7 0c 45 ff 4c 01 46 a9 fc 56 43
       8817.636 2254.4817 8275.249 214.98695
000070 d1 dd b3 43 ff 86 5b 45 0b 74 2a 44 e2 9e 85 45
       359.73294 3512.4373 681.8132 4275.8604
000080 e6 fe ab 45 83 01 b9 45 37 9a 98 45 04 ac 97 44
       5503.8623 5920.189 4883.277 1213.3755
000090 f3 d8 97 45 eb 13 b0 45 cf ae 1a 45 96 a6 27 45
       4859.1187 5634.4897 2474.9255 2682.4116
0000a0 6c 17 37 45 f7 2a b2 45 8d c7 c5 45 f9 ce 11 45
       2929.4639 5701.3706 6328.944 2332.9358
0000b0 f0 0b 18 46 c8 9b 36 42 0e 98 20 45 c7 d7 0d 45
       9730.984 45.65213 2569.5034 2269.486
0000c0 ed b3 fa 45 84 93 66 45 b6 4f 04 46 1a fe 12 45
       8022.4907 3689.2197 8467.928 2351.8813
0000d0 06 7c 9e 44 d5 1d fd 44 dd 83 12 43 79 28 b7 42
       1267.8757 2024.9323 146.51509 91.57905
0000e0 c7 d2 a7 45 6a 9c 57 45 56 65 db 45 05 47 98 44
       5370.347 3449.776 7020.667 1218.2194
0000f0 4c 89 eb 45 bb b4 f1 45 83 be 60 45 57 e4 24 43
       7537.162 7734.5913 3595.907 164.89195

layers.3.weight f4 [32, 64]
000000 cb d7 dc 3d 25 66 c1 3d 65 2f 09 3d 5e c8 c1 3d
       0.10783347 0.09443311 0.033492465 0.09462045
000010 24 3d 29 bd 2f 8b 27 3d 18 3e 02 be f9 77 f3 3d
       -0.041318074 0.04090422 -0.12719 0.11888117
000020 18 8a 34 bd 15 cd 92 bd 5c 45 0b 3d 0b a6 ca 3d
       -0.04407701 -0.071680225 0.034001693 0.098949514
000030 81 3c 32 3d 83 52 8d bd 93 a8 cb 3c 96 05 b8 bd
       0.043514732 -0.069005035 0.024860656 -0.089854404
000040 b2 81 46 bd 30 76 ed bd 0f fa 50 3d 96 f6 ac 3d
       -0.04846353 -0.11594808 0.051019724 0.0844547
000050 da ad 93 3d 17 ed d1 bd 28 45 e9 bd 69 51 ef bd
       0.07210894 -0.102502994 -0.11390144 -0.1168545
000060 a2 de 40 bc e0 df 29 bc 6f 1d 87 bc 6f 55 b3 3b
       -0.01177183 -0.010368317 -0.016493527 0.005472831
000070 57 00 fa bd 29 8b a3 3d e7 e9 fc 3c d5 ba 23 3d
       -0.12207096 0.07985527 0.030873252 0.0399731
000080 ca 69 82 3d 73 0b f1 3d 53 d6 bd 3d 2a 2c 74 bd
       0.06367834 0.11769762 0.09269395 -0.05961243
000090 1b 97 82 3d bc 99 a7 bb b5 6b d4 bd 7d 50 2d bd
       0.06376477 -0.005114762 -0.10372106 -0.042313088
0000a0 e3 7f c9 3d 2a 71 ad 3c 6d a0 44 3c c5 e9 9d bd
       0.098388456 0.021172125 0.012001139 -0.077106036
0000b0 65 6c d8 3b 8e 9b 16 bd a2 15 ae bd bd b6 01 bd
       0.0066047185 -0.036769442 -0.0850022 -0.031668413
0000c0 5a 3f f7 3b c5 73 db 3d 0c 24 a4 bd a6 5b 3d bd
       0.007545394 0.10715441 -0.08014688 -0.04622998
0000d0 93 78 d6 3d 83 be 87 3b e8 df a3 3c ff 84 f1 3d
       0.104722165 0.004142584 0.020004228 0.11792945
0000e0 36 56 42 bd 6f bb 86 3c a7 36 03 be 7e eb 0d bd
       -0.0474455 0.016446797 -0.12813817 -0.03464841
0000f0 ea fe 94 bd 80 25 01 3e 11 04 6f 3d 2d 1e e6 3c
       -0.072751835 0.12611961 0.058353487 0.02809056
000100 57 87 83 3d 09 96 b7 bd cc d6 af 3d 98 1b 43 bd
       0.064222984 -0.08964164 0.08585891 -0.047633737
000110 ea 53 13 3d 1e 50 1d bd d5 3a a2 bb 2a 66 fe bd
       0.0359687 -0.038406484 -0.004950861 -0.1242183
000120 6f 7e 6e bd 5b ba 9b bd 9b b8 8b bc 80 0a 97 bd
       -0.058226045 -0.07603904 -0.0170558 -0.073750496
000130 6b 6f 3c 3d 0b d0 aa bd 8d a3 d9 3b d7 78 02 3e
       0.046004694 -0.08340462 0.006641811 0.12741409
000140 b5 29 eb ba 92 71 c2 bd f2 50 a8 3d 25 d8 11 3d
       -0.0017941507 -0.09494318 0.08218564 0.035606522
000150 d1 77 35 3d d1 d7 cb 3d 61 9f 9d 3c 6d 4b ff 3d
       0.04430372 0.09953273 0.019241037 0.12465558
000160 c6 68 cc 3d 61 8b a4 3d 14 6c c7 bd b4 f0 88 3d
       0.099809214 0.08034397 -0.09737411 0.066865355
000170 e4 15 09 be 6f 87 58 bd f9 cb 99 bd 4d 4a 86 bd
       -0.13387257 -0.052863535 -0.07509608 -0.065571405
000180 28 ec e0 3c 6d b0 a3 bd 73 c6 35 bd 28 57 8f bd
       0.027456358 -0.07992635 -0.04437871 -0.069990456
000190 6f 41 c8 3d 44 ff 35 3d 7d 52 32 3d 49 fa 8e bd
       0.097781055 0.044432893 0.0435357 -0.06981332
0001a0 df 20 a1 bd 61 77 d5 bd 08 71 a3 3c 25 c5 8b 3a
       -0.07867598 -0.1042316 0.019951358 0.0010663612
0001b0 11 88 b3 3d a4 35 83 bb 91 0b a3 bd 88 a8 24 3c
       0.08766187 -0.004004197 -0.079611905 0.010049947
0001c0 ff 17 98 3c b2 8e 2b 3d a9 05 de 3d 01 b5 10 bb
       0.01856613 0.04188413 0.10840923 -0.0022080543
0001d0 16 c4 45 3d 44 58 98 bd 50 e9 5e bd d2 72 01 3e
       0.048282705 -0.0743871 -0.054421723 0.12641457
0001e0 2a dd 65 3d e9 93 86 3d ea 39 bf bd d2 37 70 bd
       0.05611912 0.065711804 -0.09337218 -0.058646984
0001f0 fd fa 82 bd f2 6c bc bd c5 e6 03 3e 89 7b ef 3b
       -0.063955285 -0.09200467 0.12881 0.0073084277
000200 ad c3 0e bd e4 5d 95 bc 13 ee c0 bd 22 44 5c bc
       -0.03485458 -0.018233247 -0.09420409 -0.0134439785
000210 e1 06 04 3d f0 ac eb bd d6 7d 16 bd 84 7d a2 3d
       0.032233123 -0.115075946 -0.0367411 0.079340965
000220 f4 05 39 bd 1c 3b de bd 16 1f 98 3d 39 6f ee bb
       -0.045171693 -0.10851118 0.07427804 -0.0072764424
000230 60 ef 3c bc 3b 1d eb bd 11 00 ed bd bb 2c ac 3d
       -0.011531681 -0.11480185 -0.11572278 0.08406969
000240 ce c6 52 bc 81 6a 84 bc 93 1d 6f 3d 15 b8 99 bd
       -0.012864782 -0.016164066 0.058377814 -0.07505814
000250 d4 5a a1 bd 23 46 66 bc b2 cd 0f bd c6 a4 8e 3c
       -0.07878652 -0.014054808 -0.035108276 0.017412554
000260 93 4e 6c bd fe c3 a3 3d f7 b1 e2 3d 41 e5 dc 3d
       -0.05769212 0.07996367 0.110691 0.10785914
000270 37 f3 d6 bc 0f 9a ff bd 47 20 4b bc 62 09 f2 3d
       -0.02623902 -0.12480556 -0.012397832 0.11818196
000280 6b 35 96 bd c5 98 02 3d f8 fa a5 bc 96 f4 3e bb
       -0.073344074 0.031883974 -0.020261273 -0.0029137484
000290 a7 e0 ad bd dd 92 d9 bd 2a 88 17 3c 44 04 1b bd
       -0.08490115 -0.10623715 0.009248773 -0.037845865
0002a0 0f 6b 83 3d db a7 07 3d 18 6a 2e 3d 58 6d 97 bc
       0.06416904 0.033119064 0.042581648 -0.018484756
0002b0 77 10 d5 3d 35 b2 f2 3c 5f 02 a7 bd 72 c7 65 3a
       0.10403531 0.029625991 -0.08154749 0.00087653764
0002c0 92 8a 97 bd 0a 92 9b 3d ee ad 41 bd dd a7 73 bc
       -0.07399477 0.07596214 -0.047285013 -0.014871565
0002d0 07 5a 8b bc ed a7 91 bd db 1c 06 3d 89 ed c5 3c
       -0.017010702 -0.071121074 0.032742362 0.024161117
0002e0 6f d0 d8 bd 9d 1e ae bd 58 d9 d3 bd 7b 1b ab bd
       -0.105866306 -0.08501933 -0.103441894 -0.08354851
0002f0 b0 0f f6 bd c1 f2 0e be 22 90 e8 bd f1 d9 e9 bd
       -0.12014711 -0.13959791 -0.11355616 -0.11418522
000300 ed bf e2 bd 31 7a ba bc 0f 86 8b 3d 3d 6e 6e 3c
       -0.11071763 -0.022763344 0.06812679 0.01455265
000310 e4 d5 a2 3d 62 b5 9c 3b 1e e6 fa 3d a0 54 92 3d
       0.07950953 0.0047823647 0.122509226 0.07145047
000320 80 60 8d bd b8 7f b8 bd 72 12 7b 3d 5e 4f ce bd
       -0.069031715 -0.090087354 0.061296888 -0.10073732
000330 4f 4f 95 3d 76 4f 1b bd 7d f8 c1 bd 8e 95 ac 3d
       0.072905175 -0.037917577 -0.094712235 0.08426963
000340 c4 50 c7 bd 8f e3 45 3d 20 8e 92 bd a6 b0 48 3d
       -0.09732202 0.04831272 -0.071560144 0.04899659
000350 9c 0f 24 3d 9a 54 21 3d 48 ed 67 bd 7e b1 fa 3d
       0.04005395 0.039387323 -0.056622773 0.12240885
000360 e6 38 48 bd 05 52 3d bd 83 79 30 bd 5b 35 4b 3d
       -0.048882388 -0.046220798 -0.043084633 0.04961143
000370 15 55 f6 3d 05 e1 86 3c db 9c 60 bd 03 65 a7 3d
       0.12027947 0.01646472 -0.05483709 0.08173563
000380 44 c3 b3 bd c8 b6 d8 3d a6 54 97 bd db 00 05 bd
       -0.08777478 0.10581738 -0.07389192 -0.03247152
000390 e2 48 c4 bd 1b fa ac bc 55 be d4 bd 6e 64 8b bd
       -0.09584214 -0.021115353 -0.103878655 -0.06806265
0003a0 c6 62 37 bd 10 a6 9d 3d 84 20 90 bd 6f eb 36 3d
       -0.044771932 0.076976895 -0.07037452 0.04465812
0003b0 92 55 e1 3c 93 72 7a bd 32 43 00 3e be b5 b5 3d
       0.027506623 -0.061144423 0.12525633 0.08872555
0003c0 bd 84 fa 3d 4c d8 ea bc 62 cc ab bd 9e 76 d4 bd
       0.12232349 -0.028667592 -0.08388592 -0.10374187
0003d0 1e c8 8d bd ea b8 8a 3d a0 0a 46 bb 92 c2 ea bb
       -0.06922935 0.06773551 -0.0030218735 -0.007164308
0003e0 b7 b6 82 3d b2 c6 4e 3d 05 90 03 bd c4 93 8f 3d
       0.06382506 0.05048246 -0.03211977 0.07010606
0003f0 79 2d aa 3c aa f6 bf bd 05 6f 9e 3c 75 9d de 3d
       0.020773636 -0.09373219 0.019340048 0.10869876

layers.3.bias f4 [32]
000000 3a bd d3 3d 60 45 c6 3b 3a 9e a6 bd 40 04 1c bb
       0.103388265 0.0060507506 -0.08135648 -0.0023806244
000010 f0 4e 1f 3c a0 86 c3 bb 14 b4 3b bd 30 7e 84 3c
       0.00972341 -0.0059669763 -0.045826033 0.016173452
000020 74 39 bd bd 80 94 b5 bd a0 3e 84 3b 80 50 89 bd
       -0.09239474 -0.08866215 0.004035786 -0.06704807
000030 ba fa d9 bd a8 93 c5 3c 7c be c0 bd d8 99 63 bd
       -0.106435254 0.02411826 -0.09411332 -0.05556664
000040 60 34 73 bd a8 d1 17 3d 92 14 b8 bd 30 57 92 3d
       -0.05937612 0.03706518 -0.089882985 0.07145536
000050 e0 86 c3 bd 90 fd 9f 3c 24 56 df 3d 70 14 20 3c
       -0.0954721 0.019530088 0.10905102 0.009770498
000060 2e 74 a0 3d f0 cd 80 3c e0 23 ed 3c 6a 63 83 3d
       0.078346595 0.015723199 0.02894777 0.06415446
000070 fc 0c 5e bd 04 f7 2b 3d 24 71 bf 3d 20 b5 ba 3b
       -0.0542116 0.04198362 0.09347752 0.0056978613

layers.4.weight f4 [32]
000000 b5 13 80 3f bd 40 80 3f b0 7f 80 3f f6 27 81 3f
       1.0006014 1.0019757 1.0038967 1.009032
000010 1a b5 80 3f 97 3b 81 3f 22 71 80 3f b2 5b 80 3f
       1.0055268 1.009631 1.0034525 1.0027983
000020 a3 68 7f 3f 91 9c 7d 3f e4 96 7d 3f 04 45 7f 3f
       0.9976904 0.99067026 0.99058366 0.99714684
000030 27 74 80 3f db 32 7f 3f 4f 2d 80 3f 9f 66 7f 3f
       1.0035447 0.99686974 1.0013827 0.9976596
000040 7a 40 81 3f 98 a9 80 3f f7 ef 7f 3f 6e d8 7d 3f
       1.0097802 1.0051756 0.9997553 0.9915837
000050 93 f4 7c 3f cb a2 7d 3f f0 60 84 3f ed ab 7c 3f
       0.9881069 0.9907653 1.0342083 0.9869984
000060 f6 c6 7d 3f 2c 0c 80 3f 39 14 81 3f ff 71 80 3f
       0.99131715 1.0003715 1.0084296 1.0034789
000070 44 5b 7c 3f 7d cc 80 3f d7 b7 7d 3f 40 df 7d 3f
       0.9857676 1.0062405 0.9910864 0.9916878

layers.4.bias f4 [32]
000000 17 27 1e 3b 78 d9 46 bc 8c 3f 96 3b df a9 f1 3b
       0.0024132186 -0.0121368095 0.004585212 0.0073749865
000010 a0 0e f0 b9 7b 74 9b 3c ec ee 2c 3c 68 5b 02 3a
       -0.00045787264 0.01897644 0.01055501 0.0004972727
000020 36 dd 33 39 8e e4 ba bb 58 de 00 bc 9a c7 3e bb
       0.00017153178 -0.0057035154 -0.007865511 -0.002911067
000030 de 65 48 3b 5d 47 13 bc 50 c0 88 bb 7e 4d 38 3b
       0.0030578296 -0.008989182 -0.004173316 0.002812236
000040 d1 84 a1 3b cf af 46 3a 00 f9 ba 3b 98 00 84 3b
       0.004929163 0.0007579298 0.0057059526 0.004028391
000050 9d 85 12 bb 77 8f 11 3b 23 4b 0f 3d 4b 5b 9f bb
       -0.0022357472 0.0022210756 0.034983765 -0.004863178
000060 ef 13 f5 bb 76 66 94 39 3d 87 30 3d 29 11 07 3c
       -0.007479183 0.000283051 0.043097723 0.008243837
000070 c6 3f 84 3a f6 f2 22 3c 62 0a 11 bc 2f 60 37 bc
       0.0010089807 0.009945622 -0.008852573 -0.011192366

layers.4.running_mean f4 [32]
000000 e4 aa 30 3e 07 9a 6b bd 00 20 38 bf 06 84 32 3d
       0.1725269 -0.05751994 -0.7192383 0.04358294
000010 cf d0 14 be 52 5a 5b be b2 8d 7b be 60 3e df 3c
       -0.14532779 -0.21421173 -0.24565771 0.027251422
000020 71 6e 1c be b8 13 fc bd 89 b4 d2 be 0a c8 ff 3d
       -0.15276505 -0.123084486 -0.41153362 0.12489326
000030 c8 73 ab be d4 43 cc 3d 31 80 a2 be 88 74 55 3e
       -0.33486772 0.09973875 -0.31738427 0.20845234
000040 e4 e4 76 bd 43 8a 45 3e 16 2e 22 be 5b b0 be be
       -0.06027688 0.19291024 -0.15837893 -0.37243924
000050 62 de e5 be c5 9a f4 3e a8 ac 5a bc 64 81 87 3e
       -0.44896227 0.4777433 -0.0133468285 0.26465905
000060 06 52 86 3e 90 c8 8b 3e 8f 41 62 3c ff cb 68 be
       0.26234454 0.27301455 0.013809576 -0.22734068
000070 31 10 d0 3d f8 dd 65 3d 8d a3 99 3e d6 85 9b be
       0.10159338 0.05611989 0.30007592 -0.30375546

layers.4.running_var f4 [32]
000000 d1 dd 17 3e 7f 14 5f 3c fb 95 88 3e 12 46 10 3e
       0.1483071 0.0136157265 0.26676926 0.1408923
000010 d9 20 a7 3d 85 40 58 3d 14 f9 c3 3d 5b 68 95 3e
       0.08160562 0.052795906 0.09568992 0.2918118
000020 dd bd 2b 3e 21 ce 90 3e 29 65 90 3d 4a 1e d8 3d
       0.16771646 0.28282264 0.07050545 0.10552652
000030 5c 1d 16 3e bf 4f 4c 3e 44 a8 7f 3d 01 97 02 3e
       0.14659637 0.19952296 0.06241633 0.12752916
000040 ac 2c 06 3d 7c 86 81 3d cf fd 2d 3e 6d 35 a5 3d
       0.032757446 0.06324479 0.16991352 0.08066831
000050 06 87 95 3d 1c ab 24 3f 8d 19 20 3d 95 0b 82 3d
       0.07301144 0.6432359 0.039086867 0.06349865
000060 99 d3 86 3e 6f b9 14 3e 72 35 08 3d 7c 28 a7 3d
       0.2633331 0.14523862 0.033254094 0.08162019
000070 99 97 8f 3e 60 bb 71 3d 4a f5 1c 3d 83 bd c6 3d
       0.28045347 0.059016585 0.038319863 0.09704115

layers.6.weight f4 [16, 32]
000000 3c 10 03 be 02 03 17 3e fa fd d3 bd 0d 04 db 3c
       -0.12799162 0.14747241 -0.103511766 0.02673533
000010 ef 42 36 be fc 69 02 be 99 fd d0 bc 91 f6 da bb
       -0.1779897 -0.12735742 -0.02551155 -0.006682225
000020 33 78 cf bd a7 ca 3b 3e 9b 13 a0 bd ee 56 d5 3d
       -0.10130348 0.18339024 -0.078162394 0.10416971
000030 17 71 c7 3d 02 6f 0e 3e 0f 03 1f 3e f2 b6 e2 bd
       0.09738367 0.13909534 0.1552851 -0.1107005
000040 6e c6 ff 3d f5 46 a2 3d 1b 90 b8 bc 75 8e 06 3e
       0.12489019 0.0792369 -0.022529652 0.1314028
000050 61 be 9c 3d d7 5b 96 3c 1d 74 0d 3e 94 bf e1 3d
       0.076534994 0.01835434 0.13813825 0.11022869
000060 9d d9 86 3d 14 d9 e5 3d 6d 92 3c bd 26 8d 24 3d
       0.06584475 0.11223045 -0.04603808 0.040173672
000070 8f db 16 3e 85 8f d5 bd 50 9a 8f 3d 80 05 f0 bd
       0.14732192 -0.10427765 0.07011855 -0.11719799
000080 8d 01 5f 3d 52 86 53 bd bc 3b 43 3d 92 1c cb bd
       0.05444484 -0.05164177 0.04766439 -0.09917559
000090 a8 7e 1e be d9 1c 22 be ed b9 fd 3d 95 e7 0b 3e
       -0.15478003 -0.15831317 0.12388978 0.1366256
0000a0 8f fb 3b 3d 24 11 c0 3c 09 66 9a 3d 08 67 81 bd
       0.0458942 0.023445673 0.07538993 -0.0631848
0000b0 67 89 1f 3e a3 75 4b bd 3a 3f 76 bd dd e4 02 be
       0.15579759 -0.049672734 -0.06011889 -0.12782617
0000c0 5f b5 01 3e 14 4c 5c bd 14 68 a0 3d 20 41 42 bd
       0.12666844 -0.05378349 0.07832351 -0.04742539
0000d0 0a a0 25 3e a6 ec 21 be c4 78 25 be 66 ab bd 3d
       0.16174331 -0.1581293 -0.1615935 0.09261207
0000e0 97 88 8b bd 73 16 8a ba 84 70 1c 3e b6 74 97 3d
       -0.06813162 -0.0010535255 0.15277296 0.07395308
0000f0 d9 27 31 3e eb 6f 24 3e 8d 64 ed bd e4 46 0a be
       0.17300357 0.16058318 -0.11591444 -0.13503605
000100 80 4c 8a 3d ce 5e 66 bc 94 28 8b 3d d8 d2 18 be
       0.067528725 -0.014060689 0.06794849 -0.1492418
000110 ab 3c 42 bd 44 f7 fb 3d 9a 82 59 bd 9c e2 1a 3e
       -0.04742114 0.123030216 -0.053103067 0.15125507
000120 49 e3 ec ba f4 39 41 3d 78 07 b8 bd 93 af 12 be
       -0.0018073107 0.04717441 -0.089857996 -0.14324789
000130 99 32 61 bc 6e 31 23 be a2 1b f1 bc d0 24 b7 3d
       -0.013744974 -0.15936825 -0.029432122 0.08942568
000140 21 43 0d be 17 03 a9 3d 7d a2 a7 3a fa 65 bc 3d
       -0.13795139 0.082525425 0.0012789514 0.09199138
000150 1a 02 be 3d 08 26 5b 3d 0d 48 bd 3d a4 b5 32 3c
       0.092777446 0.053503066 0.09242258 0.010907564
000160 58 4d 2f be 2c c8 e1 bd 2c 26 73 3c 71 60 bf 3d
       -0.17119348 -0.11024508 0.014840644 0.093445666
000170 dc a5 a0 3d d8 17 b6 bc dc 99 16 3e 96 be 21 3e
       0.07844135 -0.022228166 0.1470713 0.15795359
000180 ce 6b 0f 3e 30 2a 12 3e c1 b4 0f 3d 0f ba 89 3d
       0.14005968 0.14273906 0.03508449 0.06724941
000190 3b c5 9d bd 3f e6 55 3d 36 87 e2 3d a6 74 df bd
       -0.07703634 0.052221533 0.11060946 -0.10910921
0001a0 26 d3 0e 3e da 8f 25 bb 0a d5 ff 3d 91 da c9 bd
       0.13947734 -0.0025262744 0.12491806 -0.09856141
0001b0 cc f2 02 be ac a2 25 3e 57 fa b1 bd 6c 0c 2f 3e
       -0.12787932 0.16175336 -0.08690327 0.17094582
0001c0 8d 38 27 3d 4c e2 0d 3e 9f cc 3c 3e 1b 65 b1 3d
       0.040825415 0.13855857 0.18437432 0.086618625
0001d0 de 88 ca bd 8b ea cf 3c 03 83 02 3e 36 29 10 3e
       -0.098893866 0.025380393 0.1274529 0.1407822
0001e0 1f c8 98 bd 7c 41 c1 bd 90 7f f6 bd eb 62 05 be
       -0.07460045 -0.09436318 -0.12036049 -0.13026015
0001f0 71 5c 9a bd ff af d2 3d ca f5 fd bd dc 4d af 3d
       -0.07537163 0.10287475 -0.12400396 0.08559772
000200 e6 bd 10 3e 1f 89 dd bc 56 96 b5 3c 5b e3 51 3d
       0.1413494 -0.027042923 0.022166412 0.051242214
000210 3a 02 d0 bd bb 50 64 3c 09 ad 1c 3e 10 f9 1e 3e
       -0.10156675 0.013935263 0.15300383 0.15524697
000220 5a b4 34 bc bf 3a 06 3e 53 f4 c7 3d a5 02 e8 bb
       -0.011029327 0.13108347 0.09763398 -0.0070803934
000230 98 16 07 be db a8 1a 3e 5a 4f 0b bd 9c 14 b8 bc
       -0.13192213 0.15103476 -0.034011222 -0.022470765
000240 fa ce 02 bd 3c 2c 1e be ab 13 8c bd 46 34 0e be
       -0.03193567 -0.15446562 -0.06839689 -0.13887128
000250 38 dc 28 3e 04 d1 17 be c4 eb dd bd b7 43 2b be
       0.16490257 -0.14825827 -0.10835984 -0.1672505
000260 32 84 23 be 89 f2 fc 3a a6 83 99 3d 57 5e 73 bd
       -0.15968397 0.0019298355 0.07495813 -0.05941614
000270 e5 bd 82 bd 40 a8 22 be a5 73 60 3d bb 19 23 be
       -0.06383876 -0.15884495 0.054797787 -0.15927784
000280 d0 c4 95 3d a6 76 92 bd 89 c9 2f 3e fa 7c 7e 3b
       0.0731293 -0.07151537 0.17166723 0.0038831816
000290 65 d4 da 3d a4 3e 20 3d 4b ae e5 3d 8d 80 23 bd
       0.10685042 0.03912224 0.11214884 -0.039917517
0002a0 50 58 fd 39 21 2f 06 3e 4d 95 e1 3b 3b cd 42 bd
       0.00048321718 0.13103916 0.006884253 -0.047559004
0002b0 e5 18 be b9 98 ef 56 bc 16 47 b0 3d aa 38 ed 3c
       -0.00036258172 -0.013118647 0.086073086 0.028957684
0002c0 cd 5f 8b 3d e3 f3 12 be 2c 20 08 3e 25 83 3d 3e
       0.06805382 -0.14350848 0.13293523 0.18507059
0002d0 f9 82 cf bd d9 47 bb 3d ee d2 2d 3e 7e 8c 58 bd
       -0.10132403 0.09144563 0.16974995 -0.05286836
0002e0 ff f4 eb 3b 3c ef 01 be 85 42 1c 3c bf 90 31 3e
       0.0072008367 -0.12688917 0.009537344 0.17340373
0002f0 a5 09 04 3e e9 dc 06 be 52 0c d7 bb bb f0 f7 bd
       0.12894304 -0.13170208 -0.006562748 -0.121064626
000300 94 15 a6 bc 92 64 88 3b ee a5 25 3e 08 07 be 3d
       -0.020273961 0.0041623795 0.16176578 0.09278685
000310 8f 2d 1a bd b8 47 af 3d 13 57 7e 3d 09 f2 db bc
       -0.037641104 0.08558601 0.06209476 -0.02684881
000320 b6 5d 99 3d f1 c4 30 be 01 71 91 bd 9e c6 f2 3d
       0.07488577 -0.17262627 -0.07101632 0.118542895
000330 42 8a 13 be 1f 60 81 3d c6 a5 0f be 9d e9 97 bd
       -0.1440821 0.06317162 -0.14028081 -0.07417605
000340 5b 15 db 3c 76 d4 ec bd f0 5b 60 3d 8e 50 cf bd
       0.026743582 -0.11563961 0.05477518 -0.101227865
000350 3c de 47 3d ba 0a b0 bd 8f b6 04 3e df e9 36 3c
       0.048795924 -0.08595796 0.12960266 0.011164158
000360 56 43 04 3d 5c c5 09 3e d7 7d f4 3d e1 06 bc 3c
       0.03229078 0.13454193 0.119380645 0.022952499
000370 05 d5 57 3d 7e 34 7f 3d a3 ea 33 be bc 3c 5d bd
       0.052693386 0.06230592 -0.17569976 -0.054013
000380 1c e5 75 bd 95 17 dd bc 57 74 36 bd f0 ac 12 be
       -0.06003295 -0.026988784 -0.044544544 -0.14323783
000390 70 a1 03 3d 12 9f e5 3d 0c 5d 3a be b3 46 5f bd
       0.03213638 0.11211981 -0.18199557 -0.054510783
0003a0 b5 1e f5 bc f3 a8 f4 3d f9 9a ad 3d 9f 75 49 3d
       -0.029921869 0.11946287 0.08476824 0.049184438
0003b0 a6 6c 38 3e 61 5f 12 3e a0 54 38 be c9 3b 12 3d
       0.18010196 0.14294197 -0.18001032 0.035701547
0003c0 67 65 f6 bd 2d 4f 42 bd 68 1c 28 be a7 95 c9 3d
       -0.1203106 -0.04743879 -0.16417086 0.09842997
0003d0 c2 f7 37 bd 18 10 82 3c 62 f8 53 3e a2 f7 ed 3d
       -0.044914015 0.015876815 0.2070022 0.11619498
0003e0 e1 66 8a 3d 06 ff 1f 3e 1c f0 1e bc a2 d0 f1 bd
       0.06757904 0.15624627 -0.009700801 -0.11807372
0003f0 14 2a 07 be 37 29 01 be 66 90 9b 3d 73 b0 3a bb
       -0.13199645 -0.12613378 0.07595901 -0.002848652

layers.6.bias f4 [16]
000000 52 a8 1a be 21 da be bd 3d 9f 85 bd f0 97 93 3c
       -0.15103272 -0.093189485 -0.06524513 0.018016785
000010 f3 82 0b 3e 84 e0 6e 3d 67 db 82 bd 6d d5 2a be
       0.13624172 0.058319584 -0.06389504 -0.16682978
000020 b0 a5 2c bd c0 49 9f 3c 34 e5 04 3d d6 36 71 bd
       -0.0421502 0.019444346 0.032445148 -0.058890186
000030 4a 6c dd 3d 87 29 cb bd 60 7b 08 bc d3 b8 c7 bd
       0.1081167 -0.0992003 -0.008330196 -0.09752049

layers.7.weight f4 [16]
000000 a4 57 7e 3f 66 69 86 3f 4d 6d b7 3f f5 8b 87 3f
       0.9935248 1.0500915 1.4330231 1.0589586
000010 33 e6 82 3f bd 38 a4 3f 5e f0 93 3f a5 70 9b 3f
       1.0226501 1.2829815 1.1557729 1.2143751
000020 c4 aa b1 3f 2b 5a a7 3f f9 f6 a2 3f 13 9a 81 3f
       1.3880239 1.3074392 1.273162 1.0125145
000030 8c 2c a9 3f 56 1a 81 3f f9 74 a3 3f e6 17 b0 3f
       1.321672 1.0086162 1.2770072 1.3757293

layers.7.bias f4 [16]
000000 a4 19 30 bc d2 55 4d 3d a3 e4 da 3e 9d 68 48 3d
       -0.010748301 0.050130673 0.4275256 0.048927892
000010 f5 c3 9a 3c 09 78 94 3e b6 fd 51 3e 3b f8 7d 3e
       0.018892268 0.2899783 0.2050694 0.24801724
000020 65 14 e5 3e 42 97 ac 3e 8e b8 a5 3e 1b c1 70 3c
       0.44742122 0.3370915 0.32367367 0.014694477
000030 76 26 b1 3e a4 0d f9 3b d9 90 83 3e ac 78 b9 3e
       0.34599656 0.007600503 0.25696447 0.36224878

layers.7.running_mean f4 [16]
000000 10 17 41 3e 44 bf 85 bc 2d 4f 81 3d 19 a5 c2 3e
       0.18856454 -0.016326554 0.0631393 0.38016585
000010 09 33 c4 bd cf 97 e0 3e 01 a4 b0 3b 9d b5 2e be
       -0.09580047 0.4386582 0.0053906445 -0.17061467
000020 b4 0a 63 be 1f 27 a1 bd f0 53 c3 be 52 64 89 3e
       -0.22172052 -0.0786879 -0.38149977 0.2683435
000030 e6 fd be 3d 68 a9 98 be bc ec 55 3d 03 0a 55 3e
       0.09325771 -0.29816747 0.05222772 0.208046

layers.7.running_var f4 [16]
000000 28 11 88 3d a5 75 cc 3d 75 20 f8 3d bf 4a 1c 3e
       0.06643897 0.099833764 0.12115566 0.15262888
000010 84 34 bf 3d 14 0b e9 3d 88 a6 cc 3c 3f 82 85 3d
       0.093361884 0.11379066 0.024981752 0.06518983
000020 e7 f6 f1 3c d3 b7 76 3c a9 64 37 3d 65 2b 98 3d
       0.029536678 0.015058476 0.04477373 0.07430152
000030 9f 68 50 3c d1 60 04 3d 7c 57 95 3d 4b 93 3e 3e
       0.012720256 0.032318894 0.07292077 0.18610875

layers.9.weight f4 [1, 16]
000000 ec 46 29 3e a1 9b b3 3e ab 61 91 3f 98 69 b5 3e
       0.16530961 0.35079673 1.1357931 0.35432124
000010 98 67 8e 3e 62 b9 5d 3f cf 0f 1e 3f c1 54 3d 3f
       0.2781341 0.86610997 0.6174287 0.7395745
000020 2b b1 8a 3f 10 98 69 3f 3c f5 5a 3f 10 21 5f 3e
       1.0835317 0.91247654 0.8553045 0.21789956
000030 ea 8e 70 3f dd 2a 65 3e d0 1c 56 3f dd 2f 83 3f
       0.9396807 0.22379632 0.83637714 1.0248982
