HW2/model.ckpt (torch, 83547 bytes, 20 tensors)

fc.0.block.0.weight f4 [64, 117]
0.2270609 0.007971101 -0.09929357 0.013475625 -0.034980744 0.03135876 0.058315333 0.07777729
0.05466504 0.036587607 0.05057495 0.012409582 -0.013083002 -0.12440872 0.018937476 -0.035070207
0.058179013 0.011799945 0.041851733 -0.03393733 -0.03192105 -0.09350098 -0.04079191 -0.012687077
-0.095525086 0.0048807412 -0.053583693 0.056455724 0.09949965 0.065438665 -0.013735616 0.12676631
0.04886585 0.018405832 0.031712413 0.083538614 0.035138037 -0.039143793 0.07199139 0.14791167
-0.052203245 -0.06566925 0.03318357 0.002423647 -0.023580467 -0.10672779 -0.065166414 -0.031530805
0.053163327 0.06806161 0.031960726 0.015225317 0.00972841 0.0796811 -0.073364325 0.08279653
-0.019213585 -0.0036901662 -0.08581574 0.0042067776 -0.05255583 0.070148505 -0.054192986 0.038672507
-0.05882951 -0.038113676 -0.10269639 -0.037011433 0.08627172 -0.018938703 0.10634302 -0.040998995
-0.0076314537 -0.06887682 0.06915057 0.04689603 0.0056916904 0.025460161 -0.017579552 0.03948648
0.03334953 -0.047355134 0.0017417321 0.021362444 0.0013110061 0.022725629 -0.004675816 -0.024018241
0.026956609 -0.041754164 -0.0010496473 0.065643154 0.06895558 0.07389655 0.044654865 -0.009457756
-0.029316729 0.040386498 0.012451466 -0.041016642 0.027776152 -0.019494692 -0.072255865 -0.004099333
0.019540716 0.03778956 -0.10210918 0.02941065 0.021262582 0.07862993 0.06378225 0.04435186
0.080658525 0.07442937 0.055593774 0.018435137 -0.034088384 -0.23725657 -0.028112229 -0.026514625
0.07124278 -0.03218174 0.035722148 -0.059029426 -0.10927765 -0.05789415 0.005921785 -0.026891936
0.030525642 0.004179874 -0.03569626 0.08905331 0.017715873 -0.011684712 0.029494585 0.1140948
0.07360819 0.036435798 -0.020307641 0.0061649987 0.016757956 0.030042844 -0.022547577 -0.026354484
0.02526036 0.0030080862 0.07882144 -0.15628064 0.0063099223 0.020662064 -0.052678943 -0.055129286
-0.054544173 -0.0040812483 -0.036651485 0.020279203 -0.13317463 0.043250553 -0.06946439 0.05355947
-0.0040795947 0.036473125 -0.020288343 0.042328432 0.004589187 -0.030047536 -0.055781487 -0.015070278
0.03560985 -0.06270703 -0.054226108 0.0495454 0.034461122 -0.040430013 0.010444156 0.003297044
-0.038774688 0.079495616 0.07428142 -0.017598296 -0.06591786 0.02819486 -0.004260663 -0.11013048
-0.10720291 -0.032915644 -0.056932773 0.057757135 -0.0902232 -0.046879742 -0.046774905 0.014118099
0.029155407 -0.0074305977 -0.016774101 -0.06566454 0.0019113709 0.015046217 0.031766098 -0.059008546
0.033796716 0.0020430181 0.010777943 0.04282061 0.038953412 -0.063496776 -0.023420986 -0.023973964
0.04634212 0.039058466 -0.06555676 -0.041295394 0.033302836 0.122762665 -0.0021039392 -0.06024027
0.0052615604 0.09494509 0.019436628 0.036542438 -0.04109213 0.059966326 -0.027776547 -0.050386544
0.089592926 0.040981576 0.07191251 0.026394421 0.037542775 -0.012960866 0.058129493 -0.053173304
0.0034425706 0.060187727 0.05051691 -0.016399827 -0.05267683 -0.026193837 -0.019356621 -0.095768265
0.020968558 -0.012501413 0.08803553 0.030368568 -0.03471628 0.010159646 -0.0773112 0.005046411
0.0024771742 0.061753955 -0.0037947022 -0.020907981 -0.0328065 0.013203765 -0.047791783 0.07549927
00000000: a782 683e 3999 023c 6d5a cbbd dec8 5c3c
00000010: f847 0fbd 0b72 003d 0fdc 6e3d b349 9f3d
00000020: 73e8 5f3d e3dc 153d ae27 4f3d 8f51 4b3c
00000030: 165a 56bc 00ca febd c422 9b3c c7a5 0fbd
00000040: 1e4d 6e3d 8e54 413c b96c 2b3d df01 0bbd
00000050: a6bf 02bd 717d bfbd 6b15 27bd 75dd 4fbc
00000060: a8a2 c3bd a0ee 9f3b 937a 5bbd 1e3e 673d
00000070: 79c6 cb3d b504 863d 590b 61bc 07cf 013e
00000080: 8f27 483d d4c7 963c e0e4 013d 4b16 ab3d
00000090: e7ec 0f3d 3e55 20bd 3970 933d 2876 173e
000000a0: 12d3 55bd 9a7d 86bd 7feb 073d 0dd6 1e3b
000000b0: d32b c1bc 1994 dabd f875 85bd 7226 01bd
000000c0: cac1 593d e363 8b3d 40e9 023d 9c73 793c
000000d0: e963 1f3c d82f a33d 0940 96bd 3a91 a93d
000000e0: cf65 9dbc b7d6 71bb 2ac0 afbd 02d9 893b
000000f0: c844 57bd 05aa 8f3d 77f9 5dbd 1067 1e3d
00000100: 36f7 70bd 161d 1cbd 7c52 d2bd 4d99 17bd
00000110: 3aaf b03d 5725 9bbc 5fca d93d 90ee 27bd
00000120: 4611 fabb 4a0f 8dbd d09e 8d3d 0d16 403d
00000130: 5c81 ba3b d491 d03c fe02 90bc 93bc 213d
00000140: 8499 083d 75f7 41bd d54a e43a 4b00 af3c
00000150: 11d6 ab3a 192b ba3c 9637 99bb e7c1 c4bc
00000160: 1bd4 dc3c 6a06 2bbd 5294 89ba eb6f 863d
00000170: 9538 8d3d 1357 973d 05e8 363d b4f4 1abc
00000180: a329 f0bc 506c 253d 3c01 4c3c 1101 28bd
00000190: d08a e33c 55b3 9fbc e2fa 93bd b353 86bb
000001a0: da13 a03c 3ac9 1a3d 9e1e d1bd 9aee f03c
000001b0: de2e ae3c bb08 a13d 45a0 823d 4caa 353d
000001c0: 4c30 a53d 6d6e 983d 4cb6 633d 4905 973c
000001d0: 43a0 0bbd 63f3 72be 9e4b e6bc 3335 d9bc
000001e0: bce7 913d 00d1 03bd 6351 123d d7c8 71bd
000001f0: f6cc dfbd 6b22 6dbd 880b c23b 7a4c dcbc
00000200: e910 fa3c 53f7 883b 3e36 12bd 9561 b63d
00000210: e120 913c 3c71 3fbc a19e f13c 89aa e93d
00000220: e4bf 963d b43d 153d 365c a6bc c203 ca3b
00000230: fb47 893c 691c f63c b2b5 b8bc 5ce5 d7bc
00000240: d1ee ce3c 5023 453b 236d a13d 0808 20be
00000250: 77c3 ce3b 7d43 a93c e0c5 57bd 3fcf 61bd
00000260: b669 5fbd febb 85bb de1f 16bd 9220 a63c
00000270: ee5e 08be 7e27 313d 5943 8ebd 2d61 5b3d
00000280: 1fae 85bb d864 153d bd33 a6bc 9460 2d3d
00000290: e460 963b 4026 f6bc 217b 64bd 54e9 76bc
000002a0: a2db 113d 8b6c 80bd 321c 5ebd 1ef0 4a3d
000002b0: 1b27 0d3d f199 25bd f71d 2b3c 3813 583b
000002c0: 35d2 1ebd 99ce a23d db20 983d 4d2a 90bc
000002d0: f1ff 86bd e8f8 e63c 089d 8bbb 178c e1bd
000002e0: 338d dbbd 8ed2 06bd 5732 69bd bf92 6c3d
000002f0: f1c6 b8bd f904 40bd 0b97 3fbd 994f 673c
00000300: 52d7 ee3c 5f7c f3bb d769 89bc 217b 86bd
00000310: f786 fa3a 6884 763c 2b1d 023d f2b2 71bd
00000320: 6d6e 0a3d 28e4 053b f895 303c aa64 2f3d
00000330: 9d8d 1f3d 990a 82bd 5edd bfbc 0c65 c4bc
00000340: 3cd1 3d3d c5fb 1f3d 9f42 86bd 5c25 29bd
00000350: 8e68 083d fe6a fb3d 3ee2 09bb 80be 76bd
00000360: 2b69 ac3b 9272 c23d 9039 9f3c 86ad 153d
00000370: 3950 28bd 409f 753d a48b e3bc 1f62 4ebd
00000380: 7f7c b73d 4cdc 273d de46 933d 1d39 d83c
00000390: 74c6 193d d059 54bc 3119 6e3d 40cc 59bd
000003a0: c09c 613b 6887 763d d2ea 4e3d ee58 86bc
000003b0: a9c3 57bd 7594 d6bc c791 9ebc 2722 c4bd
000003c0: 41c6 ab3c bad2 4cbc f94b b43d 81c7 f83c
000003d0: a832 0ebd a574 263c 5655 9ebd 5d5c a53b
000003e0: 1658 223b b7f1 7c3d 8ab0 78bb 3747 abbc
000003f0: 1c60 06bd 9b54 583c 51c1 43bd 5c9f 9a3d

fc.0.block.0.bias f4 [64]
-0.03934202 -0.048984293 -0.03713314 -0.014933095 0.0195397 0.020908784 0.008159082 -0.05976853
-0.02439905 0.059709646 -0.057280064 -0.026135514 0.044003017 0.084410466 0.059715927 -0.08606841
-0.057991985 0.012947437 0.077373855 -0.020994723 -0.0856606 0.02601883 -0.06602424 -0.022112379
-0.077119306 0.06782279 0.0006810636 -0.019832386 0.046646792 0.08497983 -0.046961494 -0.058939654
0.052805923 0.09389314 0.021082101 -0.06331323 0.071601376 0.086155884 0.08627268 -0.07844021
-0.053703137 -0.077642255 -0.006249533 0.085653886 -0.047104914 0.088931166 0.084315956 -0.086755976
-0.05578266 0.05319554 0.05801567 0.051032376 0.06148055 -0.08612986 0.08020322 -0.0040134112
-0.0459209 -0.06236588 -0.08126489 0.07616115 0.06656717 0.025700277 0.057779934 0.07529597
00000000: 1925 21bd c1a3 48bd eb18 18bd f1a9 74bc
00000010: b911 a03c e648 ab3c acad 053c d9cf 74bd
00000020: 84e0 c7bc 1a92 743d 809e 6abd 251a d6bc
00000030: 823c 343d 65df ac3d b098 743d a244 b0bd
00000040: 0189 6dbd 7d21 543c 2f76 9e3d 20fd abbc
00000050: d36e afbd 7125 d53c b737 87bd 0525 b5bc
00000060: baf0 9dbd ade6 8a3d 6889 323a 8777 a2bc
00000070: b510 3f3d e809 ae3d b25a 40bd b56a 71bd
00000080: 064b 583d 0c4b c03d 5fb4 ac3c 5eaa 81bd
00000090: bea3 923d 7f72 b03d bbaf b03d 43a5 a0bd
000000a0: d2f7 5bbd e702 9fbd e2c8 ccbb 4e6b af3d
000000b0: 15f1 40bd 8b21 b63d d8ad ac3d 1ead b1bd
000000c0: 5c7c 64bd 91e3 593d d7a1 6d3d 5307 513d
000000d0: 07d3 7b3d da64 b0bd 9641 a43d ef82 83bb
000000e0: 8e17 3cbd 5d73 7fbd 356e a6bd 61fa 9b3d
000000f0: 5e54 883d 6389 d23c a7aa 6c3d c634 9a3d

fc.0.block.1.weight f4 [64]
0.9081717 0.9898479 0.9373209 0.9310511 0.93878573 0.9168409 0.9500195 0.9549608
0.9870947 0.9620132 0.8989568 1.0017179 0.9108626 0.9332377 0.9725268 0.92381305
0.9057051 0.8485417 1.068959 0.9671499 0.92339385 0.8983601 1.0238203 0.9326473
0.939179 0.9525882 0.9226933 1.0636108 0.8467918 0.97922456 0.98695314 0.92360973
0.90449053 1.020147 0.99232215 0.90922755 0.92980933 0.8761772 0.95637566 0.92462295
1.0341144 0.9126247 0.9095347 0.9132051 1.0273718 0.9572958 0.9311842 0.9112682
1.0219663 0.90299404 0.9160644 0.9334061 0.9260736 0.9178528 0.95420456 0.9258523
1.1100818 0.90020144 0.9300084 0.9741028 1.0300552 0.9044169 0.9906945 0.9673478
00000000: f17d 683f ac66 7d3f 43f4 6f3f 5d59 6e3f
00000010: 4354 703f 16b6 6a3f 7a34 733f 5078 743f
00000020: 3db2 7c3f 7f46 763f 0822 663f 4b38 803f
00000030: 4b2e 693f aae8 6e3f 84f7 783f 037f 6c3f
00000040: 4adc 673f 073a 593f a6d3 883f 2397 773f
00000050: 8a63 6c3f edfa 653f 8b0c 833f f9c1 6e3f
00000060: 096e 703f d2dc 733f a135 6c3f 6624 883f
00000070: 59c7 583f 76ae 7a3f f6a8 7c3f b071 6c3f
00000080: b18c 673f 2d94 823f d308 7e3f 23c3 683f
00000090: fc07 6e3f 264d 603f 09d5 743f 17b4 6c3f
000000a0: dc5d 843f c6a1 693f 44d7 683f cfc7 693f
000000b0: eb80 833f 5611 753f 1662 6e3f df48 693f
000000c0: cbcf 823f 9e2a 673f 3283 6a3f b4f3 6e3f
000000d0: 2913 6d3f 67f8 6a3f c046 743f a804 6d3f
000000e0: 2917 8e3f 9a73 663f 0815 6e3f cd5e 793f
000000f0: d9d8 833f de87 673f 289e 7d3f 1ba4 773f

fc.0.block.1.bias f4 [64]
-0.5017511 -0.028353313 -0.27652845 -0.33162785 -0.47783294 -0.226045 -0.18209937 -0.22532605
-0.28191385 -0.39539054 -0.07612908 -0.30236012 -0.31079704 -0.31047517 -0.30390587 -0.33049423
-0.27969903 -0.38114327 -0.16177152 -0.40937227 -0.44580022 -0.3335538 -0.29293063 -0.2543455
-0.21640763 -0.23210815 -0.28040615 -0.12268987 -0.5134297 -0.46870595 -0.0027475774 -0.24268577
-0.40242413 -0.23767559 -0.25517926 -0.2684156 -0.18480526 -0.2492544 -0.0105616795 -0.31527564
-0.22129065 0.09320992 -0.39565107 -0.32546395 -0.24860147 -0.46116662 -0.41793048 -0.2820644
-0.063095376 -0.22233804 -0.14556198 -0.4361571 -0.36774924 0.043915756 -0.26208284 -0.32758436
-0.20048627 -0.40799657 -0.28435203 -0.17975809 -0.44735017 -0.4461028 -0.15283193 -0.29755446
00000000: c372 00bf 3545 e8bc 2395 8dbe 20cb a9be
00000010: 85a6 f4be 5778 67be 4278 3abe dfbb 66be
00000020: 0357 90be a170 cabe 90e9 9bbd f2ce 9abe
00000030: ca20 9fbe 9af6 9ebe 8d99 9bbe 8a36 a9be
00000040: b634 8fbe 3625 c3be 6fa7 25be 3e99 d1be
00000050: ed3f e4be 90c7 aabe 01fb 95be 9339 82be
00000060: f699 5dbe c2ad 6dbe 6591 8fbe d444 fbbd
00000070: 2170 03bf 3afa efbe b310 34bb 9e82 78be
00000080: 890a cebe 3b61 73be dba6 82be c56d 89be
00000090: 973d 3dbe 8c3c 7fbe e50a 2dbc cf6b a1be
000000a0: 049a 62be d8e4 be3d c792 cabe 36a3 a6be
000000b0: 6291 7ebe 081e ecbe fcfa d5be bf6a 90be
000000c0: 2638 81bd 95ac 63be 330e 15be fc4f dfbe
000000d0: a149 bcbe 02e1 333d b92f 86be 23b9 a7be
000000e0: 464c 4dbe ede4 d0be 9796 91be 8112 38be
000000f0: 150b e5be 9667 e4be f97f 1cbe 0f59 98be

fc.0.block.1.running_mean f4 [64]
-0.037274178 -0.05144475 -0.033161364 -0.01168664 0.020615159 0.02736022 0.013206519 -0.053865373
-0.026257437 0.063029096 -0.064375505 -0.025398716 0.045470808 0.085249275 0.04939228 -0.08424045
-0.055676218 0.016632384 0.080764 -0.020326192 -0.0843877 0.02730405 -0.06646261 -0.01601107
-0.06640013 0.08122924 0.0028114535 -0.014278472 0.051806066 0.0860448 -0.052197613 -0.059395466
0.05394547 0.09802824 0.020474395 -0.06964764 0.06930276 0.09022639 0.080234505 -0.07091269
-0.061443318 -0.08290261 -0.0067085107 0.08486207 -0.04329641 0.09202347 0.08666277 -0.09327107
-0.06177543 0.052862123 0.055641167 0.0494377 0.06139662 -0.0892354 0.07863924 -0.0017588587
-0.050847817 -0.06137022 -0.09613936 0.068925515 0.06563067 0.024701511 0.051697746 0.07051619
00000000: cfac 18bd bbb7 52bd 36d4 07bd 5279 3fbc
00000010: 1fe1 a83c 8a22 e03c 2860 583c f0a1 5cbd
00000020: d619 d7bc 6615 813d 4ed7 83bd f810 d0bc
00000030: 993f 3a3d 2c97 ae3d 8f4f 4a3d 4286 acbd
00000040: bf0c 64bd a340 883c 9967 a53d 1d83 a6bc
00000050: 75d3 acbd beac df3c 8d1d 88bd a629 83bc
00000060: cbfc 87bd 845b a63d 5d40 383b 41f0 69bc
00000070: 9932 543d 4238 b03d 2acd 55bd a948 73bd
00000080: edf5 5c3d 08c3 c83d ebb9 a73c 6ca3 8ebd
00000090: 9bee 8d3d 9dc8 b83d fd51 a43d ac3a 91bd
000000a0: fdab 7bbd d8c8 a9bd 11d3 dbbb 2acc ad3d
000000b0: 9457 31bd cd76 bc3d 407c b13d e704 bfbd
000000c0: 3c08 7dbd f485 583d fee7 633d 307f 4a3d
000000d0: 067b 7b3d 0dc1 b6bd 9c0d a13d 8189 e6ba
000000e0: cd45 50bd 575f 7bbd b6e4 c4bd d228 8d3d
000000f0: 5f69 863d d35a ca3c 04c1 533d cb6a 903d

fc.0.block.1.running_var f4 [64]
0.20386286 0.26240316 0.21767278 0.069803596 0.15859579 0.20132098 0.08897948 0.51784146
0.25615126 0.26131776 0.20918228 0.07372321 0.07449999 0.2266546 0.22877309 0.6904705
0.4101413 0.10443418 0.039286934 0.21936305 0.4837807 0.36860263 0.031573445 0.2930379
0.22980976 0.5038228 0.20161694 0.06703233 0.70348895 0.2699517 0.049327955 0.1447122
0.27110666 0.21329568 0.2203901 0.21929577 0.3997178 0.26025543 0.5205815 0.18167302
0.43737027 0.1871968 0.08316351 0.20442858 0.4777987 0.17708778 0.2051757 0.1607213
0.22021376 0.11929141 0.22668445 0.19734502 0.1099633 0.11255022 0.23600994 0.15994246
0.054364253 0.118930146 0.44620207 0.25448576 0.17341654 0.17356426 0.33387858 0.1534062
00000000: 6dc1 503e b559 863e 9de5 5e3e 30f5 8e3d
00000010: ef66 223e 1627 4e3e e03a b63d 4291 043f
00000020: 4226 833e 71cb 853e e133 563e 32fc 963d
00000030: 7393 983d 2518 683e 7e43 6a3e adc2 303f
00000040: 0afe d13e 96e1 d53d 56eb 203d b5a0 603e
00000050: 1bb2 f73e 7cb9 bc3e 2853 013d 1009 963e
00000060: 4053 6b3e 88fa 003f ac74 4e3e 3f48 893d
00000070: da17 343f 1c37 8a3e 1c0c 4a3d 6f2f 143e
00000080: 7ece 8a3e 2f6a 5a3e f1ad 613e 128f 603e
00000090: d0a7 cc3e 3340 853e d444 053f 7e08 3a3e
000000a0: ffee df3e 85b0 3f3e a151 aa3d ba55 513e
000000b0: 08a2 f43e 8056 353e 9419 523e 2094 243e
000000c0: b77f 613e 0e4f f43d f81f 683e d014 4a3e
000000d0: 7034 e13d bb80 e63d 97ac 713e f5c7 233e
000000e0: 0dad 5e3d a691 f33d 9974 e43e f54b 823e
000000f0: 1b94 313e d4ba 313e 22f2 aa3e 8416 1d3e

fc.1.block.0.weight f4 [64, 64]
-0.014859095 -0.04345071 -0.06236681 -0.07286495 -0.055119004 -0.05318839 -0.07109842 0.051597808
0.029703246 -0.036395825 0.009598701 -0.092739806 -0.07806783 -0.026119582 -0.019350346 -0.011699948
-0.16273928 -0.0283787 -0.21110767 0.008874122 0.0051646205 -0.07827711 -0.22308275 -0.1186071
-0.053154927 0.0034103836 0.030711072 -0.23359716 -0.048056822 -0.0517625 -0.039447084 0.06693083
-0.056906812 0.09134284 -0.044159524 -0.003381415 -0.06597116 -0.04629751 -0.006044578 -0.10801226
0.015890684 -0.013328943 -0.012007464 -0.01622246 0.06138712 0.004143456 -0.08215124 -0.047310784
7.667471e-05 -0.20459272 0.0011342191 -0.039763656 -0.17409082 -0.015325273 0.02561503 -0.06765997
-0.21157287 -0.11205493 0.026093194 -0.0064368593 -0.070235714 -0.057051927 0.015469972 0.009194709
-0.06564724 0.06334095 0.05622778 -0.02985359 0.00854911 -0.054018117 -0.09779984 0.06671683
0.07431895 0.027328664 -0.005939809 -0.17847864 -0.081440195 -0.04255334 0.1156443 -0.13598557
0.043503545 0.015112045 -0.31107786 0.1821352 0.055181872 -0.00694012 0.02748694 0.007979482
0.02476092 0.067143634 -0.18297915 -0.3800979 -0.022747882 0.014359351 0.006743553 -0.04201054
-0.048851047 -0.019580549 0.021081936 -0.016562425 -0.018848313 -0.076739095 0.010376674 0.01870562
-0.014832804 0.007483347 -0.033073455 -0.013411958 -0.052088134 0.050545692 0.0054813456 -0.12066727
0.0065920176 0.025210686 -0.009700958 0.032168314 0.028237453 0.011413127 0.051625278 -0.0060645165
0.004752381 -0.09021828 0.055964027 -0.0022530975 -0.0016755578 0.019498454 -0.08770672 0.029634947
0.021947403 -0.045526538 -0.023588024 0.008586314 -0.04803599 0.09055532 -0.002775152 -0.046730034
-0.05181995 -0.01927987 0.027283711 0.10592435 -0.0220834 -0.14256331 -0.17228515 -0.009795504
-0.09427659 0.058148637 0.04360028 -0.012286278 -0.102592714 0.04222337 0.08522248 -0.015346989
0.08102837 0.0046434593 0.007403421 0.009352348 -0.13961469 -0.04801651 -0.001834944 -0.1434894
-0.09443346 0.028995771 0.05005073 -0.1767578 -0.04255247 0.08630955 -0.005504854 -0.13905711
-0.018800443 -0.008505011 0.011987102 0.009212377 0.0775452 0.08150214 -0.05735108 -0.008488387
-0.008259634 -0.0071769347 0.050537225 0.10310457 -0.059328202 -0.0026378995 -0.00042139817 0.10673263
0.027085489 -0.024718715 -0.2131131 -0.015836747 -0.08833464 -0.047815982 0.04831152 -0.18974653
0.11628987 0.017247023 -0.28187153 0.089504525 0.010461321 0.037814397 -0.053839322 -0.18182313
-0.015294823 0.024204176 0.054799926 0.006592463 -0.018325645 0.006407506 -0.040139575 0.05088345
-0.07302078 -0.05329525 0.083442695 0.015385921 0.03614009 -0.16798435 0.056222584 0.05759131
-0.039943147 -0.30784884 0.13622725 0.12532079 -0.02301834 0.0034881122 -0.03837298 0.048837986
0.12323364 -0.022638045 0.11164911 0.02929603 0.047110245 -0.067292154 0.055500787 0.020559844
-0.016993925 -0.030729322 0.0012781745 -0.0023488551 0.02784554 0.029952917 0.10617786 0.10400546
0.04485112 -0.11701098 -0.0066435984 0.02572725 0.02370506 -0.038743995 0.009213768 0.06926784
0.009492228 -0.05090453 -0.026855487 -0.0026919644 -0.10951748 0.058509305 -0.054034498 0.007972154
00000000: 9073 73bc 5ff9 31bd 5774 7fbd 383a 95bd
00000010: 77c4 61bd 12dc 59bd 0c9c 91bd 3958 533d
00000020: 3954 f33c ca13 15bd df43 1d3c 5eee bdbd
00000030: 07e2 9fbd bcf8 d5bc 9e84 9ebc 24b1 3fbc
00000040: 20a5 26be 737a e8bc 9c2c 58be c464 113c
00000050: fa3b a93b c04f a0bd ce6f 64be 47e8 f2bd
00000060: fbb8 59bd be80 5f3b c995 fb3c 1834 6fbe
00000070: 3bd7 44bd ea04 54bd 4493 21bd 0813 893d
00000080: 1e17 69bd f411 bb3d 9ee0 34bd bb9a 5dbb
00000090: e31b 87bd 75a2 3dbd 9811 c6bb 8835 ddbd
000000a0: 2e2d 823c a461 5abc f4ba 44bc f7e4 84bc
000000b0: 1071 7b3d d4c5 873b e93e a8bd f4c8 41bd
000000c0: 6ccc a038 c180 51be 14aa 943a 37df 22bd
000000d0: dd44 32be db16 7bbc 9dd6 d13c 4f91 8abd
000000e0: 8fa6 58be 0e7d e5bd 65c1 d53c 4aec d2bb
000000f0: bed7 8fbd 48af 69bd c475 7d3c 68a5 163c
00000100: 0f72 86bd e6b8 813d 1a4f 663d 848f f4bc
00000110: 9111 0c3c 1a42 5dbd 484b c8bd d5a2 883d
00000120: 8934 983d 5de0 df3c bba2 c2bb 1bc3 36be
00000130: 1eca a6bd 694c 2ebd ebd6 ec3d cd3f 0bbe
00000140: c630 323d 8398 773c 9945 9fbe a681 3a3e
00000150: 6306 623d f269 e3bb 4b2c e13c 60bc 023c
00000160: 6ad7 ca3c 9a82 893d e35e 3bbe 319c c2be
00000170: c459 babc 7c43 6b3c 06f9 dc3b 3e13 2cbd
00000180: 0918 48bd 6367 a0bc 06b4 ac3c ecad 87bc
00000190: c767 9abc 6329 9dbd ed02 2a3c 873c 993c
000001a0: 4a05 73bc dd36 f53b 0878 07bd d4bd 5bbc
000001b0: 5e5a 55bd 0009 4f3d dc9c b33b 6720 f7bd
000001c0: da01 d83b a486 ce3c c4f0 1ebc ecc2 033d
000001d0: 3b52 e73c 20fe 3a3c 0775 533d dab8 c6bb
000001e0: dcb9 9b3b 5dc4 b8bd 893a 653d b4a8 13bb
000001f0: 649e dbba 39bb 9f3c 959f b3bd fdc4 f23c
00000200: 0acb b33c 097a 3abd ac3b c1bc 9cad 0c3c
00000210: 63c1 44bd 1175 b93d 53df 35bb fe67 3fbd
00000220: 2841 54bd d1f0 9dbc 1782 df3c deee d83d
00000230: 3fe8 b4bc 1efc 11be 856b 30be 527d 20bc
00000240: 1614 c1bd 442d 6e3d 3596 323d 634c 49bc
00000250: 211c d2bd 6af2 2c3d 2089 ae3d f071 7bbc
00000260: 34f2 a53d 2928 983b 6698 f23b 973a 193c
00000270: 27f7 0ebe f6ac 44bd 8182 f0ba e3ee 12be
00000280: 5466 c1bd 8a88 ed3c ff01 4d3d ffff 34be
00000290: 804b 2ebd 10c3 b03d 1062 b4bb fd64 0ebe
000002a0: 6303 9abc 9a58 0bbc 8d65 443c 82ef 163c
000002b0: 05d0 9e3d 98ea a63d f7e8 6abd e012 0bbc
000002c0: 6a53 07bc 7e2c ebbb 1f00 4f3d 7d28 d33d
000002d0: 2102 73bd 9ce0 2cbb 1bef dcb9 a396 da3d
000002e0: 63e2 dd3c e77e cabc 523a 5abe 11bc 81bc
000002f0: cbe8 b4bd b1da 43bd 4de2 453d ea4c 42be
00000300: 6229 ee3d a149 8d3c 7751 90be 264e b73d
00000310: f665 2b3c 45e3 1a3d 9f86 5cbd d82f 3abe
00000320: 2397 7abc d647 c63c e375 603d 9605 d83b
00000330: aa1f 96bc 0ef6 d13b 6569 24bd 2a6b 503d
00000340: eb8b 95bd 1f4c 5abd 01e4 aa3d 3b15 7c3c
00000350: a207 143d 1704 2cbe a749 663d dee4 6b3d
00000360: 6d9b 23bd 5d9e 9dbe 287f 0b3e 1854 003e
00000370: f590 bcbc d098 643b fc2c 1dbd 570a 483d
00000380: eb61 fc3d 6c73 b9bc 4aa8 e43d 3afe ef3c
00000390: acf6 403d 78d0 89bd cb54 633d 1e6d a83c
000003a0: d836 8bbc 0fbc fbbc 6b88 a73a 40ef 19bb
000003b0: 541c e43c d25f f53c c773 d93d d100 d53d
000003c0: cfb5 373d 74a3 efbd 8bb2 d9bb f4c1 d23c
000003d0: 1d31 c23c 06b2 1ebd 58f5 163c 4cdc 8d3d
000003e0: 4a85 1b3c 4581 50bd 0a00 dcbc ab6b 30bb
000003f0: b34a e0bd 74a7 6f3d 4753 5dbd a39d 023c

fc.1.block.0.bias f4 [64]
0.11753989 -0.07431502 -0.015620242 -0.06389554 0.027626084 -0.0014171703 0.03432624 0.06038847
-0.11255038 -0.09893273 0.1043321 0.046685845 0.07075194 0.07243473 0.119056165 0.034860414
0.08124299 0.101309724 0.08267467 -0.105399296 0.09806784 -0.062127657 -0.110150516 0.050355
-0.100502156 -0.02598696 -0.10855739 -0.12431302 0.054191925 -0.10805808 0.12076914 -0.023604369
-0.08294059 0.1125523 0.116603576 -0.11048181 -0.00724713 0.057258595 0.06439467 0.0779857
-0.094955906 0.068470955 -0.072404504 0.07893314 -0.12171614 -0.023914438 -0.00283078 0.02497471
0.051425956 -0.014691749 0.034323808 -0.119846895 -0.093778364 -0.07123948 0.03265352 -0.070504636
-0.09060301 0.048009314 -0.008856115 -0.093001485 -0.07532423 0.120227106 0.03141338 -0.10601032
00000000: c1b8 f03d 7932 98bd 0bec 7fbc aadb 82bd
00000010: 1950 e23c 58c0 b9ba ac99 0c3d e659 773d
00000020: d080 e6bd 3e9d cabd 11ac d53d a839 3f3d
00000030: 65e6 903d a958 943d b8d3 f33d cbc9 0e3d
00000040: ba62 a63d 797b cf3d 5651 a93d 96db d7bd
00000050: cbd7 c83d 9279 7ebd 9896 e1bd 0b41 4e3d
00000060: 13d4 cdbd 9be2 d4bc 5653 debd d397 febd
00000070: 5af8 5d3d 8e4d ddbd d055 f73d f35d c1bc
00000080: c2dc a9bd d281 e63d dbcd ee3d 4a44 e2bd
00000090: 5579 edbb fd87 6a3d 5ae1 833d f7b6 9f3d
000000a0: 3e78 c2bd 803a 8c3d d048 94bd b3a7 a13d
000000b0: 5046 f9bd 36e8 c3bc 9c84 39bb c397 cc3c
000000c0: 06a4 523d a9b5 70bc 1f97 0c3d 4a72 f5bd
000000d0: df0e c0bd 01e6 91bd b3bf 053d bc64 90bd
000000e0: 128e b9bd 6aa5 443d 3d19 11bc 9077 bebd
000000f0: 9743 9abd a139 f63d 51ab 003d f01b d9bd

fc.1.block.1.weight f4 [64]
0.91597575 1.0401293 0.9733806 0.95015943 0.93883383 0.90562546 0.9367228 0.96064836
0.9485035 0.911516 0.9168978 0.89481616 1.0326875 0.95417696 0.9203608 0.9651445
0.9442589 0.97748953 0.92078817 0.9525181 0.9972084 0.8833643 0.90985894 0.94303685
0.9605212 0.9715454 0.922739 0.9176432 0.9459805 0.9626896 0.9434531 0.91609365
0.9421373 0.9346381 0.9133551 0.9350515 0.8974769 0.9310129 0.9293411 0.94052637
0.97032154 0.94259953 0.9361755 1.0332979 0.9379852 0.89705944 0.9398391 0.9000468
0.96368843 0.90093404 0.98131645 0.9658787 0.96273166 0.9787637 0.89961225 0.9586698
0.95147663 0.9215527 0.9694309 0.950037 0.9251241 0.92094684 0.9242825 0.96915257
00000000: 637d 6a3f f522 853f 792f 793f a63d 733f
00000010: 6a57 703f 12d7 673f 11cd 6f3f 0ded 753f
00000020: 20d1 723f 1d59 693f d0b9 6a3f ac12 653f
00000030: 1b2f 843f f144 743f c49c 6b3f b613 773f
00000040: f4ba 713f c13c 7a3f c6b8 6b3f 3ad8 733f
00000050: 0d49 7f3f 2a24 623f 84ec 683f dd6a 713f
00000060: b8e4 753f 33b7 783f a038 6c3f aaea 6a3f
00000070: c72b 723f d372 763f 2486 713f 1d85 6a3f
00000080: e92f 713f 7144 6f3f a4d1 693f 895f 6f3f
00000090: 0cc1 653f dd56 6e3f 4ce9 6d3f 56c6 703f
000000a0: fe66 783f 344e 713f 33a9 6f3f 1b43 843f
000000b0: cc1f 703f b0a5 653f 4c99 703f 7869 663f
000000c0: 49b4 763f 9da3 663f 8e37 7b3f d443 773f
000000d0: 9575 763f 4290 7a3f fd4c 663f 626b 753f
000000e0: f993 733f e1ea 6b3f a02c 783f a035 733f
000000f0: efd4 6c3f 2cc3 6b3f c79d 6c3f 621a 783f

fc.1.block.1.bias f4 [64]
-0.48742062 -0.15431103 -0.2085485 -0.19061548 -0.34150192 -0.40849045 -0.38248533 -0.22181688
-0.35177842 -0.20428854 -0.2025366 -0.36019567 -0.37448087 -0.24524069 -0.35664085 -0.37026048
-0.15981765 -0.29817984 -0.35746047 -0.2883633 -0.3828995 -0.123497605 -0.21031506 -0.14197856
-0.45698768 -0.316967 -0.3181811 -0.3749536 -0.20042229 -0.40403563 -0.5010004 -0.22796898
-0.3806756 -0.10238815 -0.31847033 -0.22009459 -0.13627218 -0.41803253 -0.1877106 -0.26709554
-0.37799606 -0.27680567 -0.2871541 -0.28332773 -0.23873253 -0.25509667 -0.36520457 -0.16732457
-0.29571113 -0.38304687 -0.19389103 -0.22751866 -0.37461427 -0.2345162 -0.159995 -0.16914634
-0.35609248 -0.19170713 -0.27207893 -0.34137994 -0.17146707 -0.44082236 -0.36539602 -0.23594363
00000000: 328f f9be b603 1ebe bd8d 55be b430 43be
00000010: 57d9 aebe a925 d1be 1ed5 c3be f723 63be
00000020: 4d1c b4be 0431 51be c165 4fbe 916b b8be
00000030: f5bb bfbe 6020 7bbe a199 b6be c892 bdbe
00000040: 3da7 23be 07ab 98be 0f05 b7be 5ba4 93be
00000050: 670b c4be 50ec fcbd d55c 57be d462 11be
00000060: 4afa e9be 8049 a2be a2e8 a2be ebf9 bfbe
00000070: 803b 4dbe c2dd cebe 9041 00bf b370 69be
00000080: eae7 c2be e1b0 d1bd 8b0e a3be 7a60 61be
00000090: ef8a 0bbe 5c08 d6be 3537 40be bfc0 88be
000000a0: b388 c1be 79b9 8dbe dd05 93be 5510 91be
000000b0: 4d76 74be 089c 82be 18fc babe 2257 2bbe
000000c0: 7367 97be b81e c4be 5f8b 46be a7fa 68be
000000d0: 71cd bfbe 0425 70be bbd5 23be b334 2dbe
000000e0: c151 b6be e04e 44be ee4d 8bbe 5ac9 aebe
000000f0: 1095 2fbe 78b3 e1be 3015 bbbe 359b 71be

fc.1.block.1.running_mean f4 [64]
-0.58023906 -0.3440693 -0.2539321 -0.08472131 -0.434744 -0.4836297 -0.30596206 -0.22807775
-0.1525241 0.09061768 0.051967688 -0.58827597 -0.2838551 0.039765388 -0.15835913 -0.31545416
0.018051239 -0.4362624 -0.14532478 0.06281765 -0.40561303 0.21244706 -0.3594902 -0.17526162
-0.72011256 -0.5149556 -0.39489597 -0.613614 0.048099253 -0.59249467 -0.36057436 -0.16454925
-0.54691327 0.18538591 -0.09536037 -0.43336454 -0.10608291 -0.43131325 -0.089511685 -0.19394092
-0.5598975 -0.349295 -0.113521226 -0.19790608 -0.26127395 -0.11740291 -0.5798585 0.4613502
-0.2486119 -0.2682143 -0.18869951 -0.45877302 -0.67596877 -0.5891281 -0.035404332 -0.25955802
-0.59861404 -0.004891707 -0.11786863 -0.46631768 -0.32206875 -0.40337595 -0.30986956 -0.13178606
00000000: 8c8a 14bf da29 b0be 6303 82be 5e82 adbd
00000010: c496 debe 509e f7be 0fa7 9cbe 378d 69be
00000020: 472f 1cbe c395 b93d 12dc 543d 4199 16bf
00000030: 7555 91be 08e1 223d e528 22be 3583 a1be
00000040: 31e0 933c c95d dfbe 05d0 14be 8aa6 803d
00000050: 83ac cfbe b98b 593e 190f b8be c877 33be
00000060: 4c59 38bf 21d4 03bf ce2f cabe cf15 1dbf
00000070: b903 453d bbad 17bf 349d b8be 997f 28be
00000080: 8202 0cbf ced5 3d3e 4c4c c3bd f5e1 ddbe
00000090: ff41 d9bd 17d5 dcbe e751 b7bd 7398 46be
000000a0: 7155 0fbf cbd6 b2be d17d e8bd e4a7 4abe
000000b0: b3c5 85be f070 f0bd 9b71 14bf 1836 ec3e
000000c0: 1e94 7ebe 6253 89be 723a 41be 4ce4 eabe
000000d0: 4a0c 2dbf 19d1 16bf 2204 11bd cae4 84be
000000e0: c53e 19bf 9d4a a0bb 1c65 f1bd 31c1 eebe
000000f0: 32e6 a4be 4b87 cebe 39a7 9ebe edf2 06be

fc.1.block.1.running_var f4 [64]
0.31075916 0.4803077 0.2643761 0.3031843 0.3723064 0.43389803 0.31217435 0.40462935
0.3395432 0.21643011 0.3574535 0.35152856 0.30253673 0.15415208 0.2935945 0.3500392
0.2369435 0.2173952 0.5129328 0.30351382 0.46999973 0.19541928 0.286724 0.2714182
0.2890569 0.25754696 0.20964968 0.33806267 0.23621345 0.36806732 0.4228463 0.27529448
0.34156734 0.2794722 0.24845544 0.36120176 0.21337163 0.28699607 0.31551105 0.43023056
0.35381335 0.6174343 0.18066749 0.4313485 0.27457952 0.5622049 0.33404317 0.24035195
0.32979423 0.3062766 0.2893206 0.31016415 0.41466737 0.35378915 0.24414779 0.40173998
0.7499833 0.38287902 0.28475794 0.33922076 0.25487992 0.383797 0.3500898 0.32738453
00000000: d31b 9f3e e4ea f53e 4e5c 873e f93a 9b3e
00000010: f29e be3e e227 de3e 51d5 9f3e 942b cf3e
00000020: 9bd8 ad3e db9f 5d3e 2504 b73e 8dfb b33e
00000030: 18e6 9a3e 0bda 1d3e 0552 963e 5738 b33e
00000040: 51a1 723e d99c 5e3e 904f 033f 2a66 9b3e
00000050: cea3 f03e fe1b 483e 7dcd 923e 54f7 8a3e
00000060: 44ff 933e 32dd 833e 68ae 563e 8d16 ad3e
00000070: f0e1 713e 5273 bc3e 4f7f d83e 66f3 8c3e
00000080: eae1 ae3e fb16 8f3e 1a6b 7e3e 70ef b83e
00000090: 187e 5a3e 26f1 923e aa8a a13e 2e47 dc3e
000000a0: 0627 b53e 2d10 1e3f e600 393e b6d9 dc3e
000000b0: b095 8c3e a9ec 0f3f b507 ab3e d21e 763e
000000c0: cada a83e 49d0 9c3e d421 943e d6cd 9e3e
000000d0: 484f d43e da23 b53e e101 7a3e ddb0 cd3e
000000e0: e8fe 3f3f b808 c43e cbcb 913e 58ae ad3e
000000f0: 9f7f 823e 0a81 c43e f83e b33e f29e a73e

fc.2.block.0.weight f4 [64, 64]
-0.13439627 -0.041648302 -0.031950638 -0.072714835 0.00013353163 0.08184238 0.036006983 -0.07063014
-0.026719691 0.037874315 0.017431289 0.01569858 -0.052192435 0.08722761 0.11607282 -0.068803705
0.010912326 0.11702042 -0.11578032 -0.018893257 0.045782343 0.013610308 -0.07018537 -0.0583869
-0.05003147 0.064311445 0.12580934 0.009829427 0.09132008 -0.04816615 -0.011608776 -0.00026973741
0.046842705 -0.04700339 -0.01285845 -0.10368808 -0.06383189 0.028350947 0.048224196 -0.023941902
0.0036475041 -0.013323895 0.08035797 -0.21274285 0.078757614 -0.10840417 -0.053569756 -0.015336145
0.09661926 -0.032878492 -0.06085406 -0.0802661 -0.084284365 -0.11967346 -0.03401689 -0.047814667
0.036543 -0.042320553 0.113310374 0.22944944 0.040948752 -0.16439338 0.072097935 -0.07223583
0.15315165 -0.058466468 0.026212133 0.023934856 -0.024324456 -0.0072608613 0.123677336 -0.016318807
0.001780503 -0.17302872 -0.16295236 0.016716588 0.14065634 0.073729895 -0.11061223 0.045191757
-0.040506806 -0.06762834 -0.012974459 -0.08614964 0.08177718 -0.10285429 -0.05693833 0.015994744
0.039613847 -0.031311832 0.018560689 -0.05216758 -0.12057639 0.020784324 0.034437843 -0.02205763
-0.04711025 -0.06760977 0.024878928 0.069515646 0.010796693 -0.0627102 -0.17130615 0.12386253
0.03819882 -0.053920668 -0.027934521 -0.019068267 -0.026702708 0.055877037 -0.0699562 -0.1353018
-0.24002072 0.082436174 0.12998292 0.16859385 -0.0008862807 0.011459372 0.12364384 0.073634855
0.052898243 -0.0487106 0.0052013253 0.015115027 -0.022645429 0.09710042 -0.03926013 0.06982924
-0.012247667 0.02084607 0.05529171 0.033209838 -0.0911162 -0.16481434 0.023253538 -0.0014348802
0.14753759 -0.0021014235 0.085209616 -0.017392278 0.0556633 0.027275829 0.07706205 -0.00973904
0.06387134 -0.007958203 -0.04824984 -0.0072479043 -0.06499217 -0.03744595 0.025528044 -0.010288133
-0.00581866 -0.02129398 -0.03207015 -0.17076294 -0.03309522 -0.011785034 -0.094732404 -0.114500545
-0.06446212 -0.06477109 0.048104648 -0.08484911 -0.057261255 -0.16402073 0.05475567 -0.04557168
-0.11908125 -0.16640748 -0.054137036 -0.07553907 -0.01089682 0.12877241 -0.09125562 0.094272785
-0.043844238 0.01621124 0.011349135 -0.13009666 -0.17802578 0.028984195 -0.03945279 0.0503136
-0.21190873 -0.027555948 0.034240287 -0.035944156 0.09308869 -0.06494443 -0.062106352 -0.074274346
0.10377442 0.02633037 -0.023836762 -0.08712036 0.10973343 -0.04025538 -0.012856561 -0.15067534
0.017484577 0.06934901 -0.06214648 -0.13637836 -0.1823982 0.09163624 -0.03541245 -0.11862754
-0.06561813 0.0020913624 -0.06888405 -0.046856407 0.1753667 0.021080552 -0.0520495 -0.0037769214
0.06308566 0.06060138 -0.077600636 0.12212672 0.11950267 0.008729359 -0.11239721 -0.007300731
-0.037345205 0.07215375 0.084642366 0.01837427 -0.028977985 0.07629017 -0.017964115 0.05029966
-0.045145076 -0.07566147 0.026860377 -0.09197481 -0.04590784 -0.04203109 0.032554157 -0.045420717
0.0026918263 -0.08990051 -0.12573652 0.012130605 0.054684177 -0.03384609 0.01771942 -0.024312908
0.03342392 -0.013131887 -0.020389771 0.1975731 -0.029555906 -0.22762632 0.093701996 -0.066163786
00000000: 2d9f 09be 6997 2abd acde 02bd 84eb 94bd
00000010: a004 0c39 fa9c a73d 0f7c 133d 89a6 90bd
00000020: 41e3 dabc 1922 1b3d 10cc 8e3c 4f9a 803c
00000030: bcc7 55bd 64a4 b23d 96b7 ed3d f5e8 8cbd
00000040: 9dc9 323c 67a8 ef3d 3b1e edbd 08c6 9abc
00000050: 4486 3b3d c5fd 5e3c 59bd 8fbd 1a27 6fbd
00000060: cced 4cbd b8b5 833d 2ad4 003e 9b0b 213c
00000070: 0606 bb3d de49 45bd bc32 3ebc 8b6b 8db9
00000080: 23de 3f3d a086 40bd 40ac 52bc 6b5a d4bd
00000090: 4bba 82bd 3f40 e83c bc86 453d cf21 c4bc
000000a0: f70a 6f3b 774c 5abc b892 a43d 43d9 59be
000000b0: ac4b a13d 0103 debd f66b 5bbd 7444 7bbc
000000c0: 52e0 c53d 99ab 06bd 1b42 79bd 8e62 a4bd
000000d0: 489d acbd 5c17 f5bd 4b55 0bbd 50d9 43bd
000000e0: 1dae 153d 5158 2dbd 450f e83d cbf4 6a3e
000000f0: e1b9 273d bd56 28be 15a8 933d 61f0 93bd
00000100: c9d3 1c3e 897a 6fbd d4ba d63c 0813 c43c
00000110: 1544 c7bc 85ec edbb 8b4a fd3d 05af 85bc
00000120: c45f e93a 712e 31be fcdc 26be 3af1 883c
00000130: 3708 103e b3ff 963d aa88 e2bd fe1a 393d
00000140: 77ea 25bd ba80 8abd d392 54bc 396f b0bd
00000150: cb7a a73d 45a5 d2bd 2b38 69bd 6907 833c
00000160: 2142 223d d640 00bd 960c 983c acad 55bd
00000170: c1f0 f6bd e343 aa3c b20e 0d3d 34b2 b4bc
00000180: adf6 40bd fe76 8abd e5ce cb3c 385e 8e3d
00000190: 9de4 303c 356e 80bd e16a 2fbe a3ab fd3d
000001a0: 5e76 1c3d ebdb 5cbd f0d6 e4bc 0e35 9cbc
000001b0: a3bf dabc 52df 643d 3245 8fbd 8e8c 0abe
000001c0: fec7 75be 4cd4 a83d 3e1a 053e dea3 2c3e
000001d0: 4a55 68ba 17c0 3b3c fb38 fd3d dfcd 963d
000001e0: d4ab 583d c484 47bd e16f aa3b 05a5 773c
000001f0: e882 b9bc 96dc c63d 3bcf 20bd a202 8f3d
00000200: 70aa 48bc 61c5 aa3c 8f79 623d 0a07 083d
00000210: 219b babd 17c5 28be 347e be3c 9712 bcba
00000220: 1814 173e 09b8 09bb 6182 ae3d 407a 8ebc
00000230: 33ff 633d 8f71 df3c b5d2 9d3d 7f90 1fbc
00000240: face 823d 1f63 02bc a0a1 45bd d47f edbb
00000250: 9d1a 85bd ed60 19bd 3020 d13c 8f8f 28bc
00000260: 75aa bebb b670 aebc fd5b 03bd 7bdc 2ebe
00000270: da8e 07bd 0416 41bc 1003 c2bd 437f eabd
00000280: b704 84bd b5a6 84bd 6109 453d 5fc5 adbd
00000290: c78a 6abd 0df5 27be 7b47 603d 5fa9 3abd
000002a0: dfe0 f3bd b966 2abe ccbe 5dbd 3ab4 9abd
000002b0: 9388 32bc eadc 033e 3ae4 babd 1712 c13d
000002c0: 0496 33bd 6fcd 843c b9f1 393c 0f38 05be
000002d0: 644c 36be 4370 ed3c 4099 21bd a215 4e3d
000002e0: 9afe 58be 03bd e1bc 8b3f 0c3d 2e3a 13bd
000002f0: 48a5 be3d 9601 85bd 3b63 7ebd 261d 98bd
00000300: af87 d43d cab2 d73c 5045 c3bc 296c b2bd
00000310: ecbb e03d d3e2 24bd 53a4 52bc a34a 1abe
00000320: d13b 8f3c db06 8e3d 4f8d 7ebd c5a6 0bbe
00000330: 98c6 3abe c8ab bb3d a50c 11bd fff2 f2bd
00000340: cc62 86bd 3d0f 093b 1513 8dbd 81ec 3fbd
00000350: 5493 333e 1fb1 ac3c db31 55bd 3a86 77bb
00000360: 0e33 813d 2739 783d 15ed 9ebd 931d fa3d
00000370: d1bd f43d 9605 0f3c 8230 e6bd f83a efbb
00000380: 49f7 18bd 58c5 933d fa58 ad3d a385 963c
00000390: 3d63 edbc 053e 9c3d 7b29 93bc 0407 4e3d
000003a0: 0bea 38bd 67f4 9abd 4b0a dc3c 4a5d bcbd
000003b0: dc09 3cbd cb28 2cbd 8257 053d 130b 3abd
000003c0: 5a69 303b c21d b8bd 13c1 00be 72bf 463c
000003d0: 84fc 5f3d 33a2 0abd 5128 913c dd2b c7bc
000003e0: 85e7 083d 2027 57bc 7308 a7bc 9a50 4a3e
000003f0: 3a1f f2bc e016 69be d5e6 bf3d e180 87bd

fc.2.block.0.bias f4 [64]
0.042192392 -0.071121566 0.020163404 0.03473019 0.008676587 0.029964266 -0.11946271 0.0832834
0.10372942 -0.117051095 -0.115043946 0.12433431 -0.09217337 0.11454193 0.06886288 0.06006202
-0.108524956 -0.043067385 0.044628516 -0.11029622 0.104831465 -0.028424026 0.046372265 0.06320225
-0.034750167 0.074623 0.09366229 0.02182455 0.03135528 -0.1082619 -0.07813089 -0.019033697
-0.10082057 0.055490933 -0.088671744 0.00087550224 -0.030626394 0.11922678 0.11757182 -0.09849467
0.014107666 -0.049522087 0.034932926 -0.01054212 -0.06274767 -0.01875268 0.032838352 0.061486207
0.11214075 0.015934598 -0.00066537055 0.06163788 -0.095959656 -0.041151244 0.043144885 0.12649378
0.09420179 -0.005164726 -0.057595305 -0.010846362 -0.011055093 -0.07345227 -0.091970116 -0.036789812
00000000: eed1 2c3d 2fa8 91bd b92d a53c 3e41 0e3d
00000010: 3e28 0e3c 9f77 f53c dea8 f4bd 7d90 aa3d
00000020: 1770 d43d 7cb8 efbd 299c ebbd fda2 fe3d
00000030: 64c5 bcbd f694 ea3d fb07 8d3d 9803 763d
00000040: 5542 debd 6d67 30bd 64cc 363d fce2 e1bd
00000050: e1b1 d63d 81d9 e8bc d8f0 3d3d 2e70 813d
00000060: 3156 0ebd f2d3 983d 04d2 bf3d 66c9 b23c
00000070: 656e 003d 6ab8 ddbd 1703 a0bd 8eec 9bbc
00000080: 047b cebd 764a 633d 8899 b5bd f681 653a
00000090: 34e4 fabc 2c2d f43d 7fc9 f03d 93b7 c9bd
000000a0: d723 673c acd7 4abd d415 0f3d dbb8 2cbc
000000b0: da81 80bd 389f 99bc 8281 063d f6d8 7b3d
000000c0: 0daa e53d 4689 823c 436c 2eba 0078 7c3d
000000d0: 7f86 c4bd 358e 28bd b1b8 303d 9687 013e
000000e0: deec c03d dd3c a9bb 0ee9 6bbd f1b4 31bc
000000f0: 6c20 35bc 256e 96bd d45a bcbd eab0 16bd

fc.2.block.1.weight f4 [64]
1.3431897 1.3116822 1.2857538 1.3830235 1.2567687 1.3269502 1.3986913 1.4297731
1.3161225 1.3260391 1.2944014 1.2498637 1.3022345 1.31184 1.2989995 1.2986604
1.3133006 1.343364 1.3042171 1.3458909 1.4312773 1.3199493 1.3192116 1.3557221
1.3107047 1.2680789 1.3382466 1.3334955 1.374845 1.3904594 1.3858515 1.2776668
1.3794541 1.2923033 1.3054252 1.3794881 1.442488 1.3930801 1.3244725 1.3195051
1.4209828 1.2748736 1.2854487 1.2315441 1.3539377 1.2916481 1.2744195 1.241755
1.4424703 1.3639727 1.3618364 1.3131537 1.2803644 1.3493733 1.4028721 1.3857616
1.3912816 1.3197097 1.4217801 1.2193645 1.3501447 1.3834561 1.3141854 1.3172594
00000000: a4ed ab3f 34e5 a73f 9593 a43f ea06 b13f
00000010: ccdd a03f 81d9 a93f 5108 b33f ce02 b73f
00000020: b476 a83f a6bb a93f f2ae a53f 89fb 9f3f
00000030: 9faf a63f 60ea a73f 9e45 a63f 813a a63f
00000040: 3c1a a83f 5af3 ab3f 96f0 a63f 2746 ac3f
00000050: 1834 b73f 19f4 a83f eddb a83f 4d88 ad3f
00000060: 2cc5 a73f 6950 a23f aa4b ab3f fbaf aa3f
00000070: ecfa af3f 93fa b13f 9563 b13f 968a a33f
00000080: f491 b03f 326a a53f 2c18 a73f 1193 b03f
00000090: 72a3 b83f 7350 b23f 5188 a93f 8be5 a83f
000000a0: c4e2 b53f 0f2f a33f 9589 a43f 3da3 9d3f
000000b0: d54d ad3f ba54 a53f 2e20 a33f d4f1 9e3f
000000c0: dea2 b83f a896 ae3f a850 ae3f 6c15 a83f
000000d0: fbe2 a33f 44b8 ac3f 5091 b33f a360 b13f
000000e0: 8415 b23f 3fec a83f e4fc b53f 2314 9c3f
000000f0: 8bd1 ac3f 1715 b13f 3a37 a83f f59b a83f

fc.2.block.1.bias f4 [64]
0.032513566 0.096161306 0.0973294 0.08068695 0.10317346 0.2009276 0.05320722 0.04690243
0.02063195 0.04601484 0.060059126 0.07379603 0.08965557 0.1522168 0.20109612 0.040512163
-0.0035695229 0.1873878 -0.057866868 0.16350004 0.14356545 0.035886876 0.18433298 0.07544594
0.006980905 0.055848677 0.11570952 0.06556148 0.19559824 0.106738746 0.100510485 0.048788503
0.17285453 0.18101747 0.027153723 0.19396889 0.19223437 0.049093556 -0.06734988 0.06287146
0.0028904714 0.047435027 0.20262185 0.06521371 0.18105808 0.06493281 0.0375323 0.14913926
0.14764948 0.0067526987 0.006375918 0.12390401 0.09142976 0.018581726 0.11375718 0.028190564
0.06287981 0.08589466 0.22089061 0.13624088 0.016196387 0.12633044 0.10728777 0.041119557
00000000: f22c 053d 38f0 c43d a354 c73d 333f a53d
00000010: 9b4c d33d f7bf 4d3e d0ef 593d c31c 403d
00000020: 5604 a93c 0f7a 3c3d 8f00 763d 5f22 973d
00000030: 579d b73d b9de 1b3e 24ec 4d3e 15f0 253d
00000040: a8ee 69bb 96e2 3f3e cf05 6dbd 8e6c 273e
00000050: d202 133e 1efe 123d c9c1 3c3e 6783 9a3d
00000060: 13c0 e43b 95c1 643d 1df9 ec3d 1945 863d
00000070: e84a 483e d899 da3d 71d8 cd3d 74d6 473d
00000080: c700 313e a55c 393e 7c71 de3c c89f 463e
00000090: 16d9 443e 5316 493d bcee 89bd c1c2 803d
000000a0: 106e 3d3b 3b4b 423d 1a7c 4f3e c48e 853d
000000b0: 4a67 393e 7efb 843d 78bb 193d f6b7 183e
000000c0: 6d31 173e be45 dd3b 14ed d03b 63c1 fd3d
000000d0: 873f bb3d b438 983c 86f9 e83d e6ef e63c
000000e0: 21c7 803d 8ae9 af3d 2631 623e bb82 0b3e
000000f0: 49ae 843c c45c 013e b1b9 db3d fb6c 283d

fc.2.block.1.running_mean f4 [64]
-0.08103199 -0.16348907 -0.30122375 -0.11901202 -0.12213191 -0.15427516 -0.3155983 -0.08404114
0.29670036 -0.204245 -0.32912853 -0.22874758 -0.22959344 -0.118507944 -0.055741057 -0.08291142
-0.14472795 -0.352971 -0.22673778 -0.268291 0.2480629 -0.24234702 -0.17471571 -0.05784085
-0.07898131 0.08497633 -0.17472199 -0.037783984 -0.21076806 -0.51132077 -0.13067481 -0.23424347
-0.27287126 -0.2985762 -0.22932683 -0.26316798 -0.12484252 0.044493243 -0.06389305 -0.39500475
-0.2912828 -0.2210026 -0.052133318 -0.20245992 -0.051210538 -0.09962528 -0.36718497 -0.1417974
0.074989825 -0.24775916 -0.36685866 -0.2193039 -0.10774916 -0.2208115 0.019108016 -0.1674491
-0.11847911 -0.051167704 -0.29375643 -0.123744085 -0.34506184 -0.14284353 -0.3957935 -0.38197407
00000000: 1af4 a5bd ae69 27be 003a 9abe 93bc f3bd
00000010: 4b20 fabd 4ffa 1dbe 1a96 a1be c31d acbd
00000020: 1ce9 973e 9a25 51be 8983 a8be ce3c 6abe
00000030: 8b1a 6bbe 4bb4 f2bd bc50 64bd 76cd a9bd
00000040: 9033 14be 9db8 b4be f32d 68be 705d 89be
00000050: 3304 7e3e d129 78be ade8 32be 87ea 6cbd
00000060: f4c0 a1bd 1208 ae3d 52ea 32be 61c3 1abd
00000070: 95d3 57be ebe5 02bf 9ecf 05be 85dd 6fbe
00000080: c8b5 8bbe fbde 98be a7d4 6abe f4bd 86be
00000090: 6fad ffbd 8c3e 363d 5cda 82bd 103e cabe
000000a0: 0523 95be 814e 62be bf89 55bd a751 4fbe
000000b0: 24c2 51bd 5708 ccbd abff bbbe 5633 11be
000000c0: 4494 993d 94b4 7dbe e6d4 bbbe 3491 60be
000000d0: 97ab dcbd 691c 62be 6a88 9c3c c777 2bbe
000000e0: 2da5 f2bd 3a95 51bd 3e67 96be 8a6d fdbd
000000f0: f2ab b0be 9345 12be 72a5 cabe 1b92 c3be

fc.2.block.1.running_var f4 [64]
0.19499542 0.22430237 0.195926 0.2424832 0.19035356 0.21183498 0.20396198 0.29525974
0.17192054 0.26929858 0.22287302 0.14017107 0.20699982 0.19173987 0.17995508 0.20908059
0.16670075 0.21574195 0.12131714 0.26179945 0.20690773 0.23840539 0.17292675 0.19166736
0.15528122 0.12111764 0.182266 0.15336655 0.29237792 0.24041025 0.23550014 0.22886692
0.30299595 0.17055388 0.116373405 0.18625562 0.23972167 0.19160263 0.18836515 0.22858675
0.30940723 0.16619709 0.22657664 0.20788378 0.15079065 0.1492545 0.13928756 0.14046423
0.24400316 0.2588792 0.19885497 0.19902948 0.1831872 0.23882934 0.19202489 0.19786614
0.30666894 0.1382662 0.25458542 0.15006499 0.22950517 0.24107562 0.22919562 0.13348499
00000000: e1ac 473e 85af 653e d3a0 483e 844d 783e
00000010: 0bec 423e 45eb 583e 69db 503e 492c 973e
00000020: f00b 303e 81e1 893e d338 643e 0189 0f3e
00000030: c3f7 533e 7557 443e 2546 383e 3919 563e
00000040: 9ab3 2a3e 75eb 5c3e 1f75 f83d 940a 863e
00000050: 9fdf 533e 8b20 743e b613 313e 7344 443e
00000060: 0a02 1f3e 860c f83d f0a3 3a3e 1f0c 1d3e
00000070: 8fb2 953e 1b2e 763e f326 713e 175c 6a3e
00000080: 4922 9b3e ada5 2e3e 2e55 ee3d cbb9 3e3e
00000090: 9979 753e 7b33 443e cbe2 403e a512 6a3e
000000a0: a06a 9e3e 922f 2a3e b503 683e 7cdf 543e
000000b0: dd68 1a3e 2cd6 183e 66a1 0e3e dbd5 0f3e
000000c0: f7db 793e d18b 843e a3a0 4b3e 62ce 4b3e
000000d0: 6d95 3b3e ae8f 743e 2ca2 443e 6c9d 4a3e
000000e0: b603 9d3e a895 0d3e 0559 823e a3aa 193e
000000f0: 6703 6b3e 87dc 763e 42b2 6a3e 4ab0 083e

fc.3.weight f4 [41, 64]
-0.36361024 0.13180919 0.12471551 0.19763775 0.2152115 0.12748343 -0.0022323679 -0.3577533
-0.36398327 -0.38478658 -0.26125082 0.12816915 -0.22065946 0.14819129 0.17035337 -0.20506184
-0.14986809 0.15443438 0.010664216 0.15659325 -0.23829363 -0.1991286 -0.060872067 -0.4909235
-0.15780234 0.20115378 0.16033773 0.16421749 0.19506283 0.16336101 -0.25536504 -0.32093516
0.16526653 0.083783925 -0.19177115 0.110306874 0.18268621 -0.21438071 -0.4492517 -0.20717277
0.0580832 -0.16568568 0.1146133 -0.53460515 -0.42594558 -0.273857 -0.05526431 0.14275797
0.14032683 0.15121554 0.082564905 0.2041069 -0.34642187 -0.3481379 -0.2995167 0.04704038
-0.33791152 -0.30799103 0.13859455 -0.2184823 -0.2481418 0.000733662 -0.16110612 0.12677833
0.037896704 -0.18998806 0.023693118 0.037549593 0.04053945 -0.04204567 0.038810536 0.06561024
0.18799955 -0.004111914 -0.055167884 -0.2428593 -0.03518257 -0.0032845177 0.01442813 -0.024873322
0.09080481 -0.07396646 -0.013892087 0.019006424 0.119009264 0.015862493 0.020615663 -0.043143284
0.08468302 0.036692675 -0.17753652 -0.07030992 -0.108119555 -0.11050979 0.11462244 -0.016314972
-0.09777183 -0.09298026 -0.068781234 -0.014779662 0.020827822 0.0046313833 -0.10596803 -0.029968161
0.043862924 0.072798446 -0.06681267 -0.06375453 0.08549708 0.0001746941 -0.18508254 -0.07818812
0.083104484 0.04557203 -0.10521339 -0.041111868 -0.06794007 0.009594621 -0.012843862 -0.03905903
0.074631594 0.04291724 0.030526638 0.15163161 -0.04140963 0.07367079 -0.0120726405 -0.20553653
-0.07156693 0.08063261 0.13769482 -0.19227004 -0.15668851 -0.10450401 -0.24533308 -0.40278682
0.10899999 -0.13336743 0.04441462 -0.08712047 0.1797457 0.20122461 0.15698235 -0.20108838
0.14660108 0.09624616 -0.09496987 0.11820348 -0.22921602 -0.3326575 0.1059878 -0.056896124
0.1557838 -0.0058123805 -0.11405646 -0.23544362 -0.18585159 -0.09381098 -0.4070976 -0.37159804
-0.06949195 0.045430616 0.086023904 0.13710473 -0.22947076 -0.4352288 -0.12349243 0.16346881
-0.03458219 -0.23491922 -0.3181443 -0.05870884 0.14416844 0.13490576 -0.13846937 0.12844306
0.13569163 0.14617926 -0.1477957 -0.17819257 0.044749226 -0.07118902 -0.25050813 0.1448596
-0.24806899 0.045295615 0.107204504 0.1586344 -0.2455386 0.12165562 -0.21065345 -0.03500616
0.120247975 -0.23829709 -0.14996561 0.08089428 -0.011052256 0.10019618 -0.37145042 0.18190984
-0.22758342 0.1100448 -0.36206853 -0.17628974 -0.20174694 -0.17719118 -0.19551641 -0.10530933
-0.08257929 -0.059643112 -0.08269383 -0.25620398 0.09097916 0.06455465 -0.26292303 0.09062894
-0.03927687 0.07507238 0.074034825 -0.3882619 -0.017999519 0.122328065 0.05556632 -0.14546752
-0.20623459 -0.08725106 0.08405917 -0.11228775 -0.021806736 0.05516418 0.18313216 -0.20678504
0.110873654 0.09637674 -0.18427487 0.086133346 -0.26261848 0.23828673 -0.01166315 -0.13441105
-0.30589652 -0.23860736 -0.03909536 -0.09743568 0.17756523 -0.04636178 0.0948618 0.12054201
0.04505025 -0.07331211 -0.015800046 -0.10118181 -0.020458737 -0.010218151 -0.010967831 0.026738465
00000000: 1f2b babe fdf8 063e d86a ff3d 8d61 4a3e
00000010: 6760 5c3e 048b 023e eb4c 12bb 712b b7be
00000020: 045c babe bf02 c5be abc2 85be c63e 033e
00000030: 8ef4 61be 75bf 173e 1d71 2e3e bbfb 51be
00000040: 0577 19be 0c24 1e3e f7b8 2e3c fb59 203e
00000050: 3f03 74be 5ee8 4bbe fd54 79bd 535a fbbe
00000060: f096 21be 42fb 4d3e 932f 243e a128 283e
00000070: 8dbe 473e 1c48 273e 35bf 82be 9d51 a4be
00000080: a13b 293e e896 ab3d a85f 44be 92e8 e13d
00000090: 1812 3b3e 9e86 5bbe 5204 e6be 1925 54be
000000a0: a6e8 6d3d 82a9 29be 61ba ea3d e2db 08bf
000000b0: 8a15 dabe fc36 8cbe d45c 62bd 252f 123e
000000c0: d6b1 0f3e 3fd8 1a3e ca17 a93d 6601 513e
000000d0: 355e b1be 213f b2be 415a 99be 6aad 403d
000000e0: bd02 adbe 00b1 9dbe bbeb 0d3e d3b9 5fbe
000000f0: e218 7ebe 3953 403a 01f9 24be 2ed2 013e
00000100: 9339 1b3d 3b8c 42be 1218 c23c 9acd 193d
00000110: b20c 263d 1538 2cbd ccf7 1e3d a95e 863d
00000120: f482 403e 3cbd 86bb b8f7 61bd 1cb0 78be
00000130: 991b 10bd 1041 57bb f763 6c3c 23c3 cbbc
00000140: dff7 b93d ba7b 97bd a39b 63bc 5cb3 9b3c
00000150: 21bb f33d 0ff2 813c 2ee2 a83c 03b7 30bd
00000160: 4b6e ad3d 0f4b 163d 22cc 35be a6fe 8fbd
00000170: c96d ddbd f552 e2bd 2bbf ea3d faa6 85bc
00000180: 993c c8bd 6f6c bebd 2ddd 8cbd 6526 72bc
00000190: 1c9f aa3c dcc2 973b c405 d9bd ca7f f5bc
000001a0: 9ca9 333d 5a17 953d 15d5 88bd bc91 82bd
000001b0: 1819 af3d 172e 3739 4786 3dbe 1821 a0bd
000001c0: af32 aa3d bda9 3a3d 1e7a d7bd eb64 28bd
000001d0: 2a24 8bbd c232 1d3c 106f 52bc 5dfc 1fbd
000001e0: 73d8 983d fdc9 2f3d 0013 fa3c 5145 1b3e
000001f0: 259d 29bd b6e0 963d 53cc 45bc 2b78 52be
00000200: af91 92bd b622 a53d dfff 0c3e 70e2 44be
00000210: f472 20be 3306 d6bd 9838 7bbe 133a cebe
00000220: 633b df3d 7991 08be 1bec 353d 386c b2bd
00000230: 420f 383e d30d 4e3e fbbf 203e 1dea 4dbe
00000240: 981e 163e b51c c53d 907f c2bd ab14 f23d
00000250: 9bb7 6abe 1552 aabe 2210 d93d e90b 69bd
00000260: ca85 1f3e c875 bebb 6f96 e9bd 2218 71be
00000270: e14f 3ebe f91f c0bd 196f d0be 1942 bebe
00000280: cc51 8ebd 7415 3a3d 4d2d b03d 2f65 0c3e
00000290: 62fa 6abe 4fd6 debe 99e9 fcbd 5e64 273e
000002a0: 0ea6 0dbd aa8e 70be cfe3 a2be ae78 70bd
000002b0: e4a0 133e bc24 0a3e eaca 0dbe 9486 033e
000002c0: bff2 0a3e 04b0 153e c257 17be 1d78 36be
000002d0: f74a 373d 8dcb 91bd 9a42 80be 1356 143e
000002e0: cc05 7ebe e587 393d 098e db3d 0e71 223e
000002f0: 796e 7bbe 9526 f93d 8ab5 57be 9f62 0fbd
00000300: 9244 f63d 2704 74be 9690 19be e6ab a53d
00000310: 8614 35bc a833 cd3d c02e bebe 9346 3a3e
00000320: a10b 69be 2b5f e13d 0c61 b9be 4c85 34be
00000330: c096 4ebe 9b71 35be 7435 48be 6bac d7bd
00000340: 551f a9bd 564c 74bd 625b a9bd 2b2d 83be
00000350: 4853 ba3d 3a35 843d d99d 86be aa9b b93d
00000360: c9e0 20bd 8cbf 993d 929f 973d 44ca c6be
00000370: ba73 93bc 2387 fa3d 8299 633d 70f5 14be
00000380: 292f 53be afb0 b2bd 3727 ac3d 1ff7 e5bd
00000390: 0aa4 b2bc d6f3 613d ff86 3b3e 75bf 53be
000003a0: ba11 e33d 2b61 c53d 8db2 3cbe ae66 b03d
000003b0: ee75 86be 7001 743e cc16 3fbc 0da3 09be
000003c0: 789e 9cbe 7d55 74be 7522 20bd 5c8c c7bd
000003d0: a9d3 353e dae5 3dbd e746 c23d bbde f63d
000003e0: 9c86 383d a924 96bd 196f 81bc 6938 cfbd
000003f0: 1599 a7bc 086a 27bc 6bb2 33bc a00a db3c

fc.3.bias f4 [41]
0.4251969 -0.47790226 -0.010939843 -0.14627872 0.13357702 0.17521079 0.08105182 -0.21563691
-0.09008434 0.0036880458 -0.006338638 0.02441141 -0.094404444 -0.1233413 -0.0105484575 -0.18829001
-0.17781225 -0.33442023 -0.21698882 -0.014087409 -0.2136621 -0.21936232 -0.1993905 0.23073438
0.089430444 0.06123672 -0.08278536 0.166382 0.046006482 0.048742868 -0.05531898 0.19059597
-0.17285074 0.045436166 -0.1569723 0.038245168 0.040636774 -0.011209812 -0.033497915 0.2555057
0.06013788
00000000: 68b3 d93e 9baf f4be 073d 33bc 17ca 15be
00000010: 6ac8 083e 756a 333e 7ffe a53d eccf 5cbe
00000020: 237e b8bd 24b3 713b 59b4 cfbb 70fa c73c
00000030: 1e57 c1bd 5d9a fcbd 70d3 2cbc 19cf 40be
00000040: 6a14 36be 2139 abbe 5132 5ebe e0ce 66bc
00000050: 3dca 5abe 84a0 60be 062d 4cbe a245 6c3e
00000060: 4f27 b73d 5bd3 7a3d 5f8b a9bd 0b60 2a3e
00000070: 4b71 3c3d 9aa6 473d 2896 62bd 972b 433e
00000080: c9ff 30be 461b 3a3d 59bd 20be f7a6 1c3d
00000090: bf72 263d 5ca9 37bc 1c35 09bd a5d1 823e
000000a0: 2353 763d
